phase3/outputs/transformer.pt (torch, 317194 bytes, 35 tensors)

cls_token f4 [1, 1, 64]
00000000: c26c 96bc d85b 033c c77c a5bc 9d89 47bc
00000010: ac30 61bb 37c2 c83c d92a 063d 3119 26bd
00000020: e054 22bd 335f 933c 436e a3bb 133d fa3c
00000030: fca0 923d b3cf dbbd 42e2 91bc 0ceb 89bd
00000040: 77cf 933c 3e0d aabc 098c 49bc 4ba3 333c
00000050: 5dd7 03bd 4a9d 383c 31b6 01bb adac 8dbc
00000060: 2910 82bb 3852 68bd 1325 1a3d eead a03d
00000070: ee19 4cbc cbea 1cbb f029 783c b68a 683d
00000080: 833c c2bb 097a 453c fb5b 153c 1512 b2bc
00000090: 8cab c43c 5444 61bc d314 80bc ac9a 073d
000000a0: 658e 813d 17b3 e7bb 946b 103d fd76 b2bc
000000b0: cb66 25bd 01b7 10bd 9b09 173b c9c9 6c3c
000000c0: c6b2 48bc a569 7ebb 2945 023d 95c5 babc
000000d0: 9e33 d73c a14b bc3c 2851 9e3c 6350 68bb
000000e0: da5c 8abd 2168 633d 478d 8abd d889 293c
000000f0: a4e3 abbd cd7f 7dbc edda 883b 6c42 ea3c
-0.018362407 0.008017503 -0.0202011 -0.012178806 -0.0034361286 0.024506671 0.032755706 -0.04055137
-0.039631724 0.01798973 -0.0049875095 0.0305467 0.071596116 -0.10732975 -0.017808083 -0.06734285
0.018043263 -0.020758267 -0.012301453 0.010964225 -0.03218781 0.011267969 -0.0019792432 -0.017294252
-0.0039692116 -0.056719035 0.037633013 0.078456745 -0.012457354 -0.0023943658 0.015146717 0.05677291
-0.0059276237 0.012053021 0.009116168 -0.021737138 0.024007581 -0.013749201 -0.01563493 0.03310649
0.06325988 -0.0070709097 0.035258844 -0.021785254 -0.040381234 -0.035330776 0.0023046497 0.014452406
-0.012249654 -0.0038820293 0.031804238 -0.022799293 0.02626973 0.022985281 0.019325808 -0.0035448305
-0.06755991 0.055519227 -0.06765228 0.010347806 -0.083930284 -0.015472365 0.0041764886 0.028596126

input_proj.0.weight f4 [64, 39]
00000000: 7771 4bbe cab6 82bd 6762 613d 1801 01be
00000010: 33db a6be f395 fb3d 85dc 67be dfd1 af3d
00000020: fba1 243e 4b36 fabd 445c 67bd 5ec7 f53d
00000030: 541e b6bd 4b7d e2bd 0389 04be 38e8 f03d
00000040: 4c5b fe3c 8b98 4f3d 1f8e bc3c 4458 00be
00000050: 4fa7 b43d ae01 363e f8e9 923d f330 18be
00000060: d436 aabd 8204 f33d a7b2 5abd 354d fdbd
00000070: 6608 183d 22ee 313e 2058 53bd f286 ff3d
00000080: 9e40 063d f863 7c3d a3cd bcbd c61e afb8
00000090: b188 5e3e 380b dc3d d60d 08bd 9f1a e6bd
000000a0: b435 0b3d 4562 433d c6c9 693e e014 5fbe
000000b0: 4876 ff3a ffc2 5cbd fd09 de3d f5c5 c53d
000000c0: 1d7b 0f3c 8b93 93bc 5938 b6bd fa7c 633e
000000d0: 89e5 d8bd 887f 90bd f80a 4ebe a510 68bc
000000e0: 1400 503d e325 ed3d 1947 3a3c 0237 32be
000000f0: 804d b9be 884c f2bd af4d 86bd 4b12 0d3e
00000100: 8b18 1a3e f4b5 953c 4062 e3bd 4145 b23c
00000110: 0cce 33bd 3c71 973d 9da2 cabd bef3 a23c
00000120: 860f 473e 61d9 38bd d1e1 57be dc27 103e
00000130: 32ba 97be 7251 563d a6a8 05be f3cf 0a3e
00000140: b7ae 4f3d f493 1e3e 0a83 cabe 1cbd 8d3d
00000150: f4d5 513d 9a3e 4ebc ef02 0bbe 9005 3abd
00000160: b06d 70bd c0bb 25bd 995c adbd 3d5f 853d
00000170: 7e76 d9bd 2747 073e 4eb6 8bbd 972f 953e
00000180: f88a 30be 8496 373d 3bf6 89be 2297 00be
00000190: 56fd e03d cf9a 0a3e 85e0 35bd c127 d6bd
000001a0: bb30 c53d 6043 68bd 5eb7 30be 8052 753e
000001b0: 4e41 86bd 16ce c53c aa90 9e3d f1c6 89bd
000001c0: 58cc e43c f069 c63d f4b6 fabd 872f 7bbe
000001d0: 6636 973d fc65 a53d 96cd ddbb 8815 7abd
000001e0: 87f7 263e 88f4 19bd 1c9d 483d b28a a8bd
000001f0: 1dde cebd 66df d1bd 7f43 773d 8250 533d
00000200: 8d09 2dbe dfbb 1f3e 3803 7ebd 2620 0b3e
00000210: 600e 11be 1911 abbd a396 e43c 8ea6 fa3d
00000220: b20b ce3d 5aac 103e 3109 953e f318 573d
00000230: 863c 89be aba9 dbbd 7b77 183d b60e 063e
00000240: d081 aabd f0a1 e73d 80bc 01bd 7858 93bd
00000250: 7e38 4dbe a4e2 ccbd a511 bd3c 98df ee3c
00000260: d988 43bd 1091 1fbe d6a7 eabd c92e 38bd
00000270: 9b60 fabc 092e 52bd 4e40 38be 5860 d03d
00000280: 7767 dd3d a256 50be 5294 17be 930e 803e
00000290: 5825 21bd 5117 28bd 8509 973d 33aa 0b3e
000002a0: d1e2 4bbe 7743 483d 81fb e73d 923b 603d
000002b0: c971 683e a127 693e fdda aa3d b94c f0bd
000002c0: 2926 3ebe 5910 ec3c 3d05 213e 403a 843d
000002d0: 5ae8 f83c f547 df3d b9e9 743d c20d 353e
000002e0: e514 6cbd 59fa 3a3e be99 ecbd 5553 693d
000002f0: 947a 213e 8489 e9bd dddc 323e 0c1b c0bd
00000300: 458e 83be b471 42be fa75 4f3e e6f3 7a3e
00000310: 2f99 773c 48f6 6f3e fdd3 5abd fe3f 39be
00000320: 7866 ccbd 654a 433e d0b6 78bd 3e58 32be
00000330: 31cc 17be ff21 16be 5610 813e 008e 0fbe
00000340: 359f 30bd 717a aa3b ea8b feba 6580 183e
00000350: 3835 64be f55e 51be 8756 3ebd 23c9 5abe
00000360: 8ba5 58be fdf6 723e f741 343e 062b 973d
00000370: 2a51 ed3d 5006 c3bd 71bb 2a3e 227b edbb
00000380: a953 0f3e 5b0a 56be d487 3f3e d20a 07be
00000390: 6e04 18bd 7dbd 41bd d533 523e d891 61be
000003a0: 912f a43e 4135 1abe e287 67be a2e5 023e
000003b0: c3b3 4cbd 55bc fe3c e363 33be 575c 0bbe
000003c0: a6e6 34be 531a a43d 8f74 d3bd 6d39 d4bd
000003d0: f35f 64bd b57a 2a3e 9102 a6bc 62ec 4a3e
000003e0: 611f a23d acce 433e 4966 9cbd 23b5 473e
000003f0: faa7 b0bd 3564 293c 0689 203e 8d91 7a3e
-0.19867502 -0.063825205 0.055025484 -0.12598073 -0.3258911 0.1228446 -0.22642715 0.085849516
0.16077416 -0.12217387 -0.056484476 0.12000917 -0.088925034 -0.11059054 -0.12942891 0.11763042
0.031049393 0.050682586 0.023016987 -0.1253367 0.08820974 0.17774078 0.07173532 -0.14862423
-0.08311239 0.11866094 -0.053393032 -0.12368242 0.037117384 0.17375997 -0.051597714 0.12476911
0.032776468 0.061618775 -0.092189096 -8.350382e-05 0.21731831 0.10744327 -0.03321632 -0.11235546
0.033986762 0.04770114 0.22830877 -0.21785307 0.0019490207 -0.0538969 0.10841749 0.09656898
0.00875738 -0.01801469 -0.08897466 0.22215644 -0.10590655 -0.07055575 -0.20121372 -0.014164125
0.050781325 0.11579492 0.01136949 -0.17403796 -0.3619194 -0.118310034 -0.06557786 0.1377651
0.15048425 0.018275239 -0.11102724 0.021761538 -0.043897673 0.073946446 -0.09894297 0.019891616
0.19439515 -0.045129184 -0.21082236 0.14077705 -0.29634243 0.052323766 -0.13052616 0.13555889
0.05070373 0.15486127 -0.395531 0.069208354 0.051229432 -0.012588168 -0.13575338 -0.04541546
-0.058698356 -0.040462255 -0.08464927 0.06512306 -0.10618304 0.13210736 -0.06821881 0.2913787
-0.17240512 0.044821277 -0.2694567 -0.12557653 0.1098582 0.13535617 -0.04440357 -0.10456801
0.09628435 -0.05670488 -0.17257449 0.23957253 -0.06555425 0.024146121 0.07742436 -0.06727398
0.02792947 0.09688175 -0.12241927 -0.24529849 0.073834226 0.080760926 -0.0067688925 -0.06105569
0.16305362 -0.03758672 0.048977956 -0.08229579 -0.101009585 -0.10247688 0.060367104 0.05159045
-0.16898175 0.15599011 -0.06201479 0.13586482 -0.1416564 -0.083528705 0.02790386 0.12238799
0.100608245 0.14128247 0.29108575 0.052514028 -0.26803988 -0.10725721 0.03722332 0.1309155
-0.08325541 0.11310184 -0.03167391 -0.071946084 -0.20041081 -0.10004166 0.023079703 0.029159352
-0.04773793 -0.1558268 -0.114577934 -0.044966493 -0.030563643 -0.051313434 -0.1799328 0.10174626
0.1081075 -0.20345548 -0.14802673 0.2501112 -0.039342254 -0.04103786 0.073748626 0.13639145
-0.19910742 0.048892464 0.113272674 0.05474431 0.22699656 0.22769023 0.0834255 -0.11733384
-0.18569244 0.028816389 0.15724654 0.06456423 0.030384231 0.109023966 0.059793208 0.1768103
-0.057637114 0.18259563 -0.115527615 0.056964237 0.15769416 -0.11403182 0.17467065 -0.09380159
-0.2569448 -0.18988687 0.20259848 0.24507102 0.015112205 0.23433793 -0.053424824 -0.18090817
-0.09980482 0.19071348 -0.06072122 -0.17416474 -0.14823987 -0.14661406 0.25207776 -0.14019012
-0.04312058 0.0052025844 -0.001942036 0.14892729 -0.22285926 -0.2044638 -0.046469238 -0.2136579
-0.211569 0.23727031 0.17603289 0.07381253 0.115877464 -0.095226884 0.16673066 -0.0072473446
0.13996758 -0.20902388 0.18704158 -0.13187721 -0.0371136 -0.04729985 0.20527585 -0.22028291
0.3206754 -0.15059377 -0.22610429 0.1278291 -0.04997612 0.031095663 -0.17518573 -0.13609444
-0.1766611 0.080128334 -0.10324966 -0.103625156 -0.055755567 0.16648372 -0.020264896 0.19816735
0.07916141 0.19121808 -0.07636697 0.19502692 -0.08625789 0.010338833 0.1567727 0.24469586

input_proj.0.bias f4 [64]
00000000: 5a8a 193d fd92 99bc 61fd 473d fe53 f3bd
00000010: 8542 eb3c e2be 943d 181c 8f3c 84a0 b73d
00000020: 9fee ad3d d88a 993d 8859 63be b1cc 04be
00000030: cf5e a53d 6851 943c 4712 c43d acc0 b33d
00000040: 0007 d63d 80e4 d2bd d17b 093e 5be9 173e
00000050: 5e05 12be 0bbd aabb bc2c 973d ea80 38be
00000060: b872 34bd 1b07 d03d 86d4 e4bd 1359 60be
00000070: 75ac 0a3d b365 553e 8c08 4abe 2850 67bc
00000080: bdb7 513e 300f 7a3c 84da 33be 4969 7dbd
00000090: ed42 13bd 21cc d3bd 1aaf 21ba deff db3d
000000a0: cd20 5ebe bec1 5a3d 5887 023e 0676 41be
000000b0: ea32 3ebd c8a4 6b3b d9b5 0abe 15ac 603d
000000c0: cc48 283d 85cb 4f3d 6822 1f3d e9bf 203d
000000d0: 47e0 df3c c153 efbc 97e6 b63b 7a0f 40be
000000e0: 12c0 6b3e a21f 4cbc 3d76 2bbe 7d99 ffbd
000000f0: 011b c03d 712f 3a3e 412b 453d a932 ff3c
0.037485458 -0.018746847 0.048825625 -0.118812546 0.028718242 0.072629705 0.01746945 0.08966163
0.08492779 0.074971855 -0.22202122 -0.12968709 0.08074724 0.018105224 0.095737986 0.087769836
0.10450554 -0.10297489 0.13426138 0.14835112 -0.1425986 -0.005210524 0.07381579 -0.18017927
-0.044054717 0.10157605 -0.11173348 -0.21908979 0.033855874 0.20839576 -0.19729823 -0.014118232
0.20480247 0.01526241 -0.17563826 -0.061867986 -0.035952497 -0.10341669 -0.0006167755 0.10742162
-0.216922 0.053407423 0.12746942 -0.18892679 -0.046435274 0.0035956372 -0.13545932 0.05485161
0.04108505 0.0507312 0.03885117 0.03924552 0.027328623 -0.029214742 0.0055816877 -0.18755904
0.23022488 -0.012458714 -0.16744323 -0.124804474 0.093801506 0.1818216 0.048136953 0.031152086

input_proj.1.weight f4 [64]
00000000: 8388 7b3f f100 8c3f c0c6 833f 21ae 753f
00000010: 5e92 7e3f 5d92 883f 0813 7d3f d6f7 823f
00000020: 4b7b 833f 1114 723f 6dc2 8a3f 6751 853f
00000030: 906b 8f3f 7ee4 843f e068 833f 6ad4 7b3f
00000040: 83de 853f f915 843f aff2 863f 619e 813f
00000050: 4098 8b3f 391f 8b3f 1d2f 863f e272 8c3f
00000060: c017 7b3f 9607 713f 96d6 843f bbdd 883f
00000070: a6c3 893f a596 853f 3c9e 7c3f 107d 7a3f
00000080: db7a 853f 80f2 873f a305 8d3f 5f62 823f
00000090: bd1a 803f 88c0 833f 3ac6 823f 30b8 8d3f
000000a0: c050 893f 37cc 813f 55cb 813f c095 843f
000000b0: 35e0 933f 080c 883f e359 853f 708f 813f
000000c0: 06af 843f f4d5 863f 4dd7 883f b3ea 833f
000000d0: 7b90 883f 9f42 7b3f 2e98 833f 1c28 873f
000000e0: cf60 7c3f e0f1 833f 20f5 7d3f f1ed 873f
000000f0: dbd6 723f 76e3 923f eb0b 873f 2b98 853f
0.98255175 1.0937787 1.0295029 0.95968825 0.9944209 1.0669667 0.98857164 1.0231884
1.0272001 0.9456187 1.0840584 1.0415467 1.12047 1.038223 1.026638 0.98370993
1.045853 1.0319206 1.0542811 1.0126458 1.0905838 1.0868903 1.0483128 1.097256
0.98083115 0.941522 1.0377986 1.0692667 1.0762832 1.0436598 0.98678946 0.9784708
1.0428118 1.062088 1.1017345 1.018627 1.000816 1.0293131 1.0216744 1.1071835
1.0727768 1.0140446 1.0140177 1.03582 1.1552798 1.0628672 1.0418056 1.0121899
1.0365913 1.0534043 1.0690705 1.0306 1.0669092 0.9814853 1.0280817 1.0559115
0.9858522 1.0308189 0.99202156 1.0619489 0.94859093 1.1475666 1.0550512 1.0437063

input_proj.1.bias f4 [64]
00000000: 14a6 373d 51ca 193d a575 ab3d 1d27 12bd
00000010: 681e b53d bcf9 963c 584f fe3b 021d 463d
00000020: ad7d 8c3d f705 8f3d ef03 debd 79c6 47bd
00000030: 2fa0 673b 487b 233d 3aa8 20bc 5595 953d
00000040: cae0 1b3e 9cbf c1bd 7d28 943d 9dfb 773d
00000050: 02f5 cebd ecc6 d9bc a20a 613c f753 e1bd
00000060: aba2 483d ac5b f33d a7b9 8c37 d2e2 62bd
00000070: 7dae a0bd aede b73d 200e afbd e36c 9fbd
00000080: c03a 6f3d 814a 5d3d 23ad 6ebc b2ec c1bd
00000090: e5c7 a5bd a78c 42bd 5c58 5f3d 320b a8bb
000000a0: df1d b1bd 5519 6d3d c57e 8e3d 8fa4 3dbe
000000b0: 044d bdbd 1d6a 20bc c708 aabd fa16 e83b
000000c0: 5239 a53c afbc 93bd 5b15 df3c a5ef 783d
000000d0: 5664 acbc ce97 82bd 574f a23c 1cd4 b5bd
000000e0: 0c3a 443e 914e ebbc 8902 32bd 322b 85bc
000000f0: 3634 ec3d 10b2 0f3d 324c 1ebd 7d18 303d
0.04483612 0.03754646 0.08372048 -0.035681833 0.0884369 0.01842963 0.0077609234 0.048367508
0.06859908 0.069835596 -0.10840594 -0.048773263 0.003534328 0.039912492 -0.009805733 0.073038734
0.15222469 -0.09460375 0.07234285 0.06054269 -0.10105325 -0.026584111 0.013735445 -0.11002343
0.048983257 0.118827194 1.6775752e-05 -0.055392094 -0.07845781 0.0897802 -0.08547616 -0.0778444
0.058405638 0.05402613 -0.014567646 -0.09468974 -0.080947675 -0.047497418 0.054527625 -0.0051282877
-0.086482756 0.057885487 0.06957773 -0.18519805 -0.09243205 -0.009790924 -0.083024554 0.007082817
0.020168934 -0.07213723 0.027231863 0.060775418 -0.021043938 -0.06376611 0.019813223 -0.08878347
0.19162768 -0.028723987 -0.04345945 -0.016255949 0.11533396 0.035081923 -0.038646884 0.042992104

pos_enc.pe.weight f4 [65, 64]
00000000: 29ce 2c3f a92d 8abd 8551 673f 93ab ddbf
00000010: fc15 8b3e 7ad8 7b3f 789b 9b3e 7d7f f93d
00000020: d867 12be 0b96 a7bf 0df1 07c0 b3f8 53bf
00000030: 9d3d eebf c7f0 0c40 ecec a9be 10cf 3840
00000040: 6955 abbf ae46 07bf 625d 863f 575d 27bf
00000050: 000f 46bd 8997 d1bf 22bb c73f 949d 72be
00000060: 8773 493e d6ff 22bf a0aa c6bf 2271 88be
00000070: b77e e0be ae4d 273f c49c 8a3f 8f27 f2bf
00000080: 9988 833e 9adb 3e3f fa7b bdbc 4bd2 b1bf
00000090: af2d 34bf f78c fcbd 8c74 0d40 da46 81bf
000000a0: af4d b5bf 0ca5 47be 48bf 6a3d 481d 823e
000000b0: 4d7d 003f 1608 abbf 696c e2be 6d80 da3e
000000c0: f386 bd3e fc45 0e3f d1d5 ccbf 0336 c73f
000000d0: 22ee aebf 9343 c8bf c8cd 813d 4216 983c
000000e0: 5a77 1f3f 2828 b0bf 4996 843d c602 03bd
000000f0: 6d01 2e3f eae3 d4be e101 983f a6c4 873e
00000100: 12dd dc3e 6555 0a3f 5c47 1040 6dc5 6dbe
00000110: 208e 483f 087c bcbe 87e2 5b3f 43a5 e1bf
00000120: c0c3 2abf 314d 313f 63e0 ca3e e052 9c3e
00000130: a32e 01bf c1b8 d93c 11f2 2a3f 89f8 393f
00000140: 7064 acbd b42c 023e 182c 413e 45ad 8a3f
00000150: e119 debd 4d75 dc3e 0329 553c ce18 bd3f
00000160: d0ba 863f 346b 12c0 12d4 cc3f c744 7dbf
00000170: a97d c83b a79e 0bbf 3c4f ecbe f6b2 7fbf
00000180: d8d1 b6bf 3c06 ee3f e3d0 aabf 40a3 783e
00000190: d9cb f5be b7bf 21c0 f505 5b3e 83ca d2bf
000001a0: 906a 243d 4ae3 af3f 8ae6 8c3e ff3a c63f
000001b0: 34df bcbe c86d 7d3e f206 df3f 0a10 f6be
000001c0: 8f9d b6bd 32ba a1bb 67f2 ee3f 975d 4bbd
000001d0: fa42 7b3f 75c9 39bf af1a 6e3e f027 b43f
000001e0: bb41 b23f eb1a 1440 97e1 e6bf c145 18be
000001f0: 5dbd 103f ed36 d2bf e320 473f f013 a13e
00000200: bc7d d3be 79cc 2e40 b366 8f3e 267d 3fbf
00000210: 4185 2b3e 1f78 8abf 30da 40bf 1500 ff3e
00000220: 0adb bebe a31b d1be df05 543f ade0 8abf
00000230: 21eb 72bf 9373 3fbe 831d bbbf 9e1c 7cbe
00000240: 0b97 20bf 45a2 a9be c44e 89bf 0628 eebf
00000250: 2c55 343f 56e1 133f 63ea dbbf 80cf 8e3d
00000260: e217 25bd 02b5 adbf e00a f53e 2ba1 4f3e
00000270: a168 55bf 5d46 1e3f a007 c2bf c5db 743f
00000280: 65b4 ec3f 02c4 20bf 0f84 80bf 0cce 803f
00000290: ac98 0340 f4f3 e13f 456b 87bf 30d7 34bf
000002a0: 0e1e 3dbf 63b4 4abf f3b4 963f a943 a9bf
000002b0: dba0 9cbe 6026 cfbe dd34 afbf 97f4 06be
000002c0: 6305 cc3d ba26 a73f 268f 2d3e 1e2b c83e
000002d0: 1b8c 98bf c90d fabf a3f1 bebf 09b2 3bbe
000002e0: c824 d13f 36fb 2bbf 6cce d6bf 480c 95bf
000002f0: 2fff b93f dba2 133f b2b0 a53f aa60 ef3f
00000300: 4926 7e3f 7743 b9bf 6d0b 403e 05c5 1abf
00000310: e6ac 663f 6c0f 933f 9f05 4340 ced2 b43e
00000320: 403f 04c0 2363 073f f6eb 8cbf 8242 273f
00000330: 386d 4dbf b85f 97bf 8383 733f f170 15c0
00000340: 45c4 06c0 f9e1 ebbe 143b 75bf baaf 043e
00000350: 13a9 9dbf d140 91bf d5f9 b0bf 108b 53bf
00000360: 588e ad3f f9eb b1bf d0f2 23bf 0fe8 8e3f
00000370: 8a41 55bf af5f 53bf 878e c23e 6b7a 513f
00000380: c8a9 bc3f 820d 3a3f faf3 0f40 f21c d13f
00000390: 1a10 91bf c745 0240 3d1d 923f 8387 48bf
000003a0: ff4f cfbf b82e 8a3f f10e 9b3f 2bd8 ccbe
000003b0: f0ef 13bf a6d2 b63e 1ac2 5e3f c48b 1a3d
000003c0: 2439 e0bb 5eea 21bf df67 e13e def8 0040
000003d0: ba01 90be 3a24 efbe cc7d 9d3e 13ae d23f
000003e0: b9ac fb3e 2157 d13e 1ed3 9e3e b0f4 39c0
000003f0: 072c 2c3f 5b88 2a3d 1d75 2d3f fa46 7c3e
0.67502075 -0.0674699 0.90358764 -1.7317985 0.2716521 0.9837719 0.3039205 0.121825196
-0.14297426 -1.3092664 -2.1240876 -0.8280136 -1.8612553 2.202196 -0.3318857 2.887638
-1.338544 -0.52842224 1.0497248 -0.653768 -0.04835415 -1.637437 1.5603983 -0.23692924
0.19672976 -0.63671625 -1.5520821 -0.26648813 -0.43846676 0.65352905 1.0829091 -1.8918322
0.25690153 0.74553835 -0.023130406 -1.3892301 -0.7038221 -0.123315744 2.2102385 -1.0099747
-1.4164332 -0.19496554 0.057311326 0.25412965 0.50191194 -1.3361843 -0.44223335 0.42676106
0.3701702 0.5557554 -1.6002752 1.5563358 -1.3666422 -1.5645622 0.06338078 0.0185653
0.6229149 -1.3762255 0.06473977 -0.031985067 0.67970926 -0.41580135 1.1875573 0.26517218
0.43137413 0.5403655 2.2543554 -0.23219843 0.78341866 -0.36813378 0.8589253 -1.7628559
-0.6670494 0.6925841 0.39624318 0.3053198 -0.50461787 0.026577355 0.66775614 0.7264486
-0.084175944 0.12712365 0.18864477 1.0834128 -0.1084478 0.43058243 0.013010266 1.4773195
1.0525761 -2.2877932 1.6002219 -0.9893307 0.0061184955 -0.5453896 -0.461542 -0.9988245
-1.4282789 1.8595653 -1.3344997 0.24281025 -0.48007086 -2.5273263 0.21388991 -1.6468052
0.04014069 1.3741238 0.27519637 1.5486754 -0.3688904 0.2474891 1.7423995 -0.48059112
-0.08916771 -0.0049355263 1.8667725 -0.0496498 0.98149073 -0.72573024 0.23252366 1.4074688
1.3926309 2.314143 -1.8037595 -0.14870359 0.56538945 -1.6423012 0.77784556 0.31460524
-0.41306865 2.73123 0.2800804 -0.74800336 0.16750051 -1.0817908 -0.7533293 0.4980475
-0.3727649 -0.40841398 0.8282146 -1.0849816 -0.9489003 -0.18696432 -1.4618381 -0.24620292
-0.62730473 -0.33131614 -1.0727162 -1.8605964 0.7044246 0.5776571 -1.7180904 0.06973171
-0.04030598 -1.3570864 0.4785986 0.20276324 -0.83362776 0.61826116 -1.5158577 0.9564784
1.8492552 -0.62799084 -1.0040301 1.006288 2.0561934 1.7652574 -1.0579611 -0.7064085
-0.73873985 -0.791815 1.1773971 -1.3223773 -0.30591473 -0.40458965 -1.3688008 -0.13179241
0.09961965 1.3058693 0.16949138 0.39095396 -1.1917757 -1.9535457 -1.4917492 -0.18329634
1.633935 -0.6718019 -1.6781745 -1.1644373 1.4531001 0.5767037 1.2944548 1.8701375
0.9927717 -1.4473714 0.18754359 -0.6045688 0.9010757 1.1489081 3.047218 0.3531708
-2.0663605 0.52885646 -1.100951 0.6533586 -0.8024478 -1.1826086 0.95122546 -2.3350184
-2.1057293 -0.4607084 -0.9579327 0.1295766 -1.2317222 -1.1347905 -1.3826243 -0.8263407
1.3559065 -1.3900138 -0.6404238 1.1164569 -0.8330313 -0.82567877 0.37999365 0.8182742
1.4739313 0.7267686 2.2492661 1.6336958 -1.1333039 2.0355089 1.1415173 -0.78331774
-1.6196288 1.0795507 1.2113935 -0.40008673 -0.5778799 0.35707587 0.87014925 0.037730947
-0.006842749 -0.6324824 0.4402456 2.0151896 -0.28126317 -0.46707326 0.30760038 1.6459373
0.49155214 0.40886787 0.31020445 -2.9055595 0.6725468 0.041633945 0.67756826 0.2463645

blocks.0.norm1.weight f4 [64]
00000000: b070 823f 83bc 903f dee2 953f 12d5 7f3f
00000010: 50a7 903f 6629 893f 27c7 7f3f 2dd1 863f
00000020: 7943 893f f095 813f 1413 873f 9fb9 823f
00000030: b7ef 883f aa75 823f 144a 883f 03e6 7f3f
00000040: d1f4 803f 02c8 863f eb3c 823f a4d7 833f
00000050: 92a7 963f 17ac 8b3f 1bf7 853f d901 833f
00000060: 1bbb 8a3f fcf0 803f a7df 873f 0e9a 823f
00000070: e2c9 923f 9803 883f cbcc 8c3f 42ea 7e3f
00000080: 8c45 863f 5180 813f cf68 8c3f 039b 7f3f
00000090: 6ecc 823f 422f 663f 742a 8a3f c98e 8e3f
000000a0: 2640 813f b8d5 833f 175d 863f 7838 843f
000000b0: 9830 923f eb53 8a3f ad5a 843f 3152 8a3f
000000c0: a80f 883f 56e4 903f 79db 883f 3bf3 893f
000000d0: 7812 863f 7e2d 813f 6427 893f 3d09 843f
000000e0: a79a 803f c297 773f 3f99 893f 3567 873f
000000f0: b265 803f 6dde 973f c24e 903f 1c1a 883f
1.019064 1.1307529 1.1709859 0.99934494 1.130106 1.0715759 0.9991326 1.0532585
1.0723716 1.0123882 1.0552697 1.0212897 1.0698155 1.0192158 1.0647607 0.99960345
1.0074712 1.0529788 1.0174841 1.0300183 1.1769888 1.0911893 1.0466036 1.0234939
1.083835 1.0073543 1.0615128 1.0203264 1.146786 1.0626097 1.0999998 0.995762
1.0489974 1.0117284 1.0969485 0.99845904 1.0218637 0.8991586 1.0794206 1.1137325
1.0097702 1.0299597 1.0497159 1.0329733 1.142108 1.080686 1.0340172 1.0806333
1.0629778 1.1319683 1.0691978 1.0777353 1.0474386 1.0092008 1.0715146 1.0315319
1.0047196 0.9671594 1.0749892 1.0578371 1.0031035 1.1864754 1.1274035 1.0632968

blocks.0.norm1.bias f4 [64]
00000000: 2640 26bd 4414 b53d 3997 383d 7bbd 4abd
00000010: 5b28 46bd 9bdb ebbb a1b4 c9bc a3da 97bd
00000020: 8ae6 7a3c c7fd 103d 6e15 03bd 0d6c dc3c
00000030: 591f fdba 2dff 473d bf41 2dbd 7c64 3c3d
00000040: 488c 5f3d 2282 063d 4fc2 91bd 03c9 0cbc
00000050: c013 93bd 678f 5f3d 5719 15bc 4bc1 27bd
00000060: 56c9 933d 6321 353c ad36 193d b124 d63c
00000070: 3102 92bb 5693 1d3d d383 043e 6a0e a53d
00000080: 981f aabc 28b2 383d 8ca2 483c ddd6 3fbd
00000090: fa92 0b3b 2027 33bd 915b 4d3d 6985 a73c
000000a0: a4f6 d0bb 1e10 60bd e786 123c 9431 97bd
000000b0: f321 9cbc 477a 3a3c cf69 f63c 850b b03b
000000c0: ad91 a1bd e2e4 7b3c 2782 a83d f3a2 383d
000000d0: 29f9 113b f575 2dbc 194c 2f3d 0382 413c
000000e0: 1ca3 1d3d 9ad4 e73c 68d1 81bc 0f8f fc3b
000000f0: 95c5 923a f16f 353d 57a9 ccbc 1a24 263d
-0.04058852 0.08841756 0.045066092 -0.04949711 -0.04837833 -0.00719781 -0.024622263 -0.074147485
0.015313754 0.03539827 -0.03200286 0.026906991 -0.001931171 0.04882734 -0.04229903 0.045994267
0.054577142 0.032838948 -0.071171395 -0.008592847 -0.071815014 0.05458012 -0.00910028 -0.040955823
0.07216136 0.011055323 0.03740566 0.026140543 -0.0044558276 0.03847059 0.12940912 0.0805939
-0.020767018 0.045091778 0.012245785 -0.04683577 0.0021297322 -0.043738484 0.050136153 0.020449357
-0.006377058 -0.05470287 0.008943296 -0.07382503 -0.019059157 0.011381692 0.03007975 0.005372467
-0.078891136 0.015374394 0.082279496 0.045077275 0.0022273755 -0.010587205 0.04279718 0.011810782
0.03848563 0.028299619 -0.015846923 0.0077074836 0.00111978 0.04429621 -0.024983091 0.040561773

blocks.0.attn.in_proj_weight f4 [192, 64]
00000000: 9041 273d 5c76 593a 1796 9cbd a0be e13c
00000010: eae9 bebd ff08 bb3c 3250 25be dbee 453c
00000020: f15b 483d 9910 2fbe 4e03 0f3e 32f6 883d
00000030: c6ed 3d3d e19f 0b3e 9dff 8db9 813e 1cbe
00000040: 56aa 4abe af16 003e 143c 793d 6598 24bd
00000050: 8b66 7cbd a33c e43d 75f1 32bd e35b e73c
00000060: af15 28be 3861 d53a e2e2 65bd 8c56 693c
00000070: c6bd 763e 2316 8c3c e3f8 d4bd e14d 7d3d
00000080: b705 c33c 667d 053d da81 783d 5343 d3bc
00000090: 9591 f03d 5f81 0b3e 6601 013e 32ca 43bd
000000a0: 3b1e 1cbe 7ee8 0cbe 0e38 a2bc 1f8e da3d
000000b0: 98c4 c3bd 3f47 303e 5324 153d 1b5e a6bd
000000c0: d3c9 f43d 66b3 883e 49d9 c63d 293f 2e3b
000000d0: 4bd1 1ebd 8f6f f8bb b8a4 13bd 4131 86bc
000000e0: df86 b5bd fa2d 81bd db30 d33d 6dc6 5cbd
000000f0: 3d58 2cbe abe4 4f3e 8bea 2dbd f909 2fbe
00000100: 8452 88bc d9f2 b5bd 88c9 afbd 6e6a 993d
00000110: 61a3 9cbc 089a 98bd 1cb7 ddbd 6604 21bd
00000120: 9b0f 2c3e 0e0f 453d 2374 debc a4e5 003e
00000130: ef03 d6bd 9c0c 553e 7858 3abe 46f0 b0bd
00000140: 0813 663d 186a 523e 9b82 a93c f6fa 21be
00000150: 30a3 453d 4fbb 9ebd b7f2 fdbd ad02 acbd
00000160: 11ea 94bd 1f91 8cbd 9f07 5cbe 81f7 81bd
00000170: df50 d2bd 368f 92be c7bf 2bbe 521a b83d
00000180: 2b7e ccbd aa3f 023e 14e0 a03d 6747 2cbe
00000190: d15a a8bb b3dd 7b3d 2aeb 493e 1ffa 81bd
000001a0: 5669 5bbc 7b5c 253e a902 e3bc d5d1 23bd
000001b0: edd7 c9bd c364 d83d 0ca9 a6bd cced d9bd
000001c0: e151 84bd 2b18 08bd 77f7 063d 6e84 a2bd
000001d0: 298e 973d 5a7b febc 10a8 62bd bd00 c23d
000001e0: c90b 53be 4fd3 103d 7cf6 bbbd 88cf 803d
000001f0: d44d d8bc 633e 44bd 4258 27be 8d2f 673d
00000200: 5661 4ebd 5b66 d13d 6443 8cbd 04e6 c63c
00000210: c01d 503b d3e0 183e d950 f8bc 636a 523d
00000220: 64f1 053e 8b00 773c 5381 04be d031 30be
00000230: 0127 51bd b552 373e 38e0 72bc 209a 433c
00000240: e518 d2bd 9c01 e5bd 2f54 c2bc 10b8 a7bd
00000250: 34fe 873d 911a 4abe 4c27 ed3d 0e21 df3d
00000260: 8aab 443e 8777 803c 0d41 5cbe 8ee9 e23d
00000270: db05 f7bc b19f 6a3d ff70 353e 8569 1a3e
00000280: d7d2 433e 2c40 d53d 3c20 79bb 9c83 d7bd
00000290: d71b a0bd c367 8abd 06ca 8d3d 2ed8 34bd
000002a0: 6c90 913d a90d c7bd 18d3 4a3d 0455 7c3d
000002b0: 5a52 813e cf00 8abd 6efe 3a3e 95bf 563e
000002c0: f795 eebd 92fe cebc b808 b23d 0747 9839
000002d0: ac8c 28bd 117b e7bd 1ea6 1a3d e1f0 613e
000002e0: 6bb0 c1bd 9a08 f9bc c50f 27be f9df 103d
000002f0: d76f 45bc 280e 1e3d 7cbc a23d 472f 54bc
00000300: 5e4e afbd ba1e 673e a221 033d c8a0 62be
00000310: 19db 50be 0573 633d 859d 39bb 223d fdbd
00000320: 6552 dcbd 6300 b2bd efde a8bd df3f bfbd
00000330: 9ece d3bc e5be c63c ee01 eebc 6bc5 403e
00000340: e16a a83d 182b f23c c302 153e bafb c5bc
00000350: 848f eebd e3e2 babc a897 073e 8202 0a3e
00000360: 6ce5 133e 0d3f 81bc bfde f93d 3335 b8bc
00000370: c1d9 e7bd c644 4ebe b00e 733e 4cac 203e
00000380: cb40 56be 27e6 e93d d19a 233e 74ba fcbd
00000390: 5f4a b4bc aa19 b8b8 1d58 e73c 01fd 0abe
000003a0: 870a ebbc c68e a03d eec7 2c3d af28 b7bd
000003b0: c5da 243d 777b a1bd 2fad 12be ef2f ba3c
000003c0: 278f 26bd 8e00 0ebe 0931 053d 3025 11be
000003d0: 43ff 73be e107 4dbd d2f1 093e 5abf 4f3e
000003e0: aed8 30be f469 89bd 38c1 4e3e 53b7 ab3c
000003f0: d3c2 0ebd 88cb dfbc 73b3 9b3d 8e55 ad3d
0.04083401 0.000829553 -0.07645815 0.027556717 -0.09321959 0.022831438 -0.16143873 0.012080873
0.048915807 -0.17096175 0.13966104 0.06687583 0.046369337 0.13635208 -0.00027084062 -0.15258218
-0.1979154 0.12508653 0.06084831 -0.040184397 -0.06162123 0.11144378 -0.043687303 0.028242057
-0.16414522 0.0016279584 -0.056124575 0.014241826 0.2409583 0.0171004 -0.10399034 0.06184185
0.023806436 0.032590292 0.06067071 -0.025788939 0.117465176 0.1362357 0.1259819 -0.04780025
-0.15245907 -0.13760564 -0.01980212 0.10671639 -0.09558982 0.17214678 0.036411595 -0.08123418
0.119525574 0.2669937 0.097094126 0.002658794 -0.038773816 -0.007581658 -0.03604576 -0.016380908
-0.08863615 -0.063075975 0.10312053 -0.05390017 -0.16830535 0.20302074 -0.042460006 -0.17093648
-0.016640909 -0.0888421 -0.08583361 0.07491003 -0.019120874 -0.07451254 -0.10825941 -0.039310835
0.16802828 0.04811006 -0.027154988 0.12587601 -0.10449969 0.20805591 -0.1819781 -0.086395785
0.056170493 0.20548284 0.02069216 -0.1581839 0.04825133 -0.0775057 -0.1239981 -0.08398948
-0.07271207 -0.06863617 -0.21487282 -0.06346036 -0.10269331 -0.28624886 -0.16772376 0.08989395
-0.09985002 0.12719598 0.078552395 -0.16824113 -0.0051377793 0.061490726 0.19718614 -0.06346535
-0.013391813 0.1614856 -0.02771123 -0.039995033 -0.09855638 0.10566094 -0.08137712 -0.10641059
-0.0646093 -0.033226173 0.032950845 -0.07935415 0.07400162 -0.031064678 -0.05533606 0.09472797
-0.20609964 0.03535777 -0.091778725 0.062895834 -0.026404299 -0.04791106 -0.16342261 0.056441832
-0.050385796 0.10224601 -0.06848791 0.024279602 0.0031756014 0.14929514 -0.030311989 0.05137099
0.13080364 0.015075813 -0.12939958 -0.17206502 -0.051062588 0.17902644 -0.014823966 0.011938602
-0.102586545 -0.111819476 -0.023721782 -0.08189404 0.06640282 -0.19736697 0.11579761 0.108949766
0.19206062 0.015681995 -0.2150919 0.11079703 -0.03015416 0.0572812 0.17718886 0.15079315
0.19123398 0.104126304 -0.0038013598 -0.10523149 -0.0781781 -0.06758072 0.069232985 -0.044151478
0.071076244 -0.09719402 0.04951772 0.061604515 0.25258142 -0.067384355 0.1826112 0.2097152
-0.11649697 -0.025267873 0.08693069 0.0002904462 -0.04114978 -0.1130277 0.037756078 0.22064544
-0.09457477 -0.03039961 -0.1631461 0.035369847 -0.0120505905 0.03858772 0.07946107 -0.012950725
-0.08559869 0.22570315 0.032014497 -0.22131646 -0.20396079 0.055529613 -0.0028322649 -0.12365176
-0.10757903 -0.0869148 -0.08245646 -0.09338354 -0.025855359 0.024260947 -0.029053655 0.18825309
0.082235105 0.029561564 0.14551835 -0.024167884 -0.11648467 -0.022813266 0.13241446 0.13477519
0.14442986 -0.015777135 0.122006886 -0.022486305 -0.1132083 -0.20143422 0.23736072 0.15690726
-0.20923154 0.11420851 0.15977027 -0.123402506 -0.02200812 -8.778584e-05 0.028240258 -0.13573076
-0.028691543 0.07839732 0.042182855 -0.08943307 0.040247697 -0.07884877 -0.14323877 0.022727935
-0.040663864 -0.13867399 0.032517467 -0.14174342 -0.23827843 -0.050056342 0.13471153 0.20287839
-0.17270157 -0.06709662 0.20190895 0.02096144 -0.034853768 -0.027318731 0.076025866 0.08463584

blocks.0.attn.in_proj_bias f4 [192]
00000000: a62d 743d c2fd b4bc e9e4 cd3d d2f8 853c
00000010: e3e1 92bd 49b5 423b 21fa b63c 5c51 dcbd
00000020: 82fb 8abc a21f 853d 0441 8abd 4972 ccbc
00000030: 9aba f2bc 1ec5 21be 8351 c23d a405 3dbe
00000040: 413f 01bc 3352 673d 0c20 90bd 7dc9 243d
00000050: c516 453c 9838 f8bc 8b54 9d3d 467f 1e3d
00000060: 67c6 09bd c41e a43d e73d 93bd e65b 21bd
00000070: 7e86 3d3d 922d 0abb bf8a 2f3d 16c2 7f3c
00000080: 101d 01be 30fd 513d e204 bebc 0121 073c
00000090: 969e 873d 8f52 a9bc cd5e 1e3b 2919 4a3d
000000a0: 53ab 09bd b861 21bb c46e f83c c23b e83c
000000b0: 2ddd 63bb e204 efbd a4ae e83b e0fc d3bc
000000c0: 0d7b 923c 2995 b1bd 0b1c 45be b6b6 26be
000000d0: 9894 453e 3535 d2bd 39b8 69bd 9d3e 403e
000000e0: 2a82 d5bc 8d9f 16be 19e5 ce3d 54af 4a3d
000000f0: f426 163e 27a7 15be 3eea 0c3d e85b 26bd
00000100: 4fbb 05bd 3633 8e3d c1ff 3d3d ffa0 83bb
00000110: 32e8 e6ba da29 12bd fa45 3dbd 1abf 413d
00000120: a28e ecbc 8b08 3fbb 78b1 1b3b afec 363b
00000130: 04f0 1f3c 10e5 b5bc 2ce9 09bd 4e05 63bc
00000140: 9872 da3c f32e bdbd d5b8 043c 293d 1b3d
00000150: 5d68 a6bb 036c 703c d2c1 43bc a8fe 4ebd
00000160: 63df 2abc 4a02 f73c 078c e0bc a235 b13b
00000170: 6adb 803d 80ff 383d c9e6 34bc 8ebd c63c
00000180: 2b3e 87bb 001e efbb d402 f7bb 2b11 a23a
00000190: 1176 7bbd 719f 4ebc c90d 9cbd 1612 fabc
000001a0: 0218 82bc a725 523d 2c00 9b3c 597a 8cbc
000001b0: 41b1 c53c 7baa a03b 1612 8b3d 8225 dabc
000001c0: 7e22 6a3d f75b f5bb c401 583d 3f23 bbbc
000001d0: d929 4bbd fdfc 83bb f14d e83c 8e25 a73c
000001e0: a5c1 453d 56ae ab3b 10a4 89bc 4717 97b8
000001f0: 7888 b73a 19e0 723c 3430 e83c d84e 9b3d
00000200: 7033 693d 05ae 4d3d 19b3 a63c 53d2 f23c
00000210: 6c1e eb3b 08ea 993b bd88 363d d0e5 c73b
00000220: 6dc9 d0ba 7af5 9abb ed42 c8bb 822b 30bc
00000230: 5ee3 42bc 502a 11bc f92c 4e3d c2a7 7bbc
00000240: f508 a03c 1d81 403a 10a7 77bc d2de c2bc
00000250: e6df b93c ed24 0ebc b666 25bd f82f 903c
00000260: 3a03 c4bc 1834 7e3b 5806 c13b 5368 1ebc
00000270: f2c3 883b f978 f33c 0b1b 2b3b a2b8 8dbb
00000280: 7cf2 813c 21fe e8bb eebe 623d 52cc e63a
00000290: 45d8 fdbb c065 7ebc 3d63 dabc a1af 90bb
000002a0: adc9 53bc 2d8f 243b d5fe 40bb 2ebf b3b9
000002b0: 44c0 3a3d 2bb3 053b fd2b 5c3a 13b8 e2bb
000002c0: b739 3c3d 7598 423c 4b5c d1bc 26d0 0abb
000002d0: aaf4 5b3d 4194 d0bc e97b a3bc f718 29bd
000002e0: 8bb1 39bc a861 0dbd d29d b83c 2c92 69bc
000002f0: c6e8 f23b dd48 593c 671a 74bc 85c3 32bd
0.059613846 -0.022093657 0.10053427 0.016353998 -0.07171991 0.0029710105 0.022336068 -0.107577056
-0.016965631 0.06500174 -0.06750682 -0.02495684 -0.029629994 -0.1579785 0.094882034 -0.18459183
-0.007888616 0.056474876 -0.070373625 0.040231217 0.012029354 -0.030300424 0.07682141 0.038695596
-0.033636477 0.080136806 -0.07189541 -0.03939428 0.04627084 -0.002108429 0.042856928 0.015610239
-0.12608743 0.05126685 -0.023195688 0.008247615 0.06622045 -0.02066925 0.0024165392 0.0493404
-0.033610653 -0.0024624895 0.030326255 0.028348807 -0.0034769282 -0.11670853 0.007100897 -0.025877416
0.01788094 -0.08671028 -0.19248979 -0.16280636 0.19294965 -0.10264055 -0.057060454 0.18773885
-0.026063044 -0.14709301 0.10102291 0.049483612 0.14663297 -0.14614545 0.03440308 -0.040614992
-0.032649335 0.069433615 0.046386484 -0.004016995 -0.0017616807 -0.035684444 -0.046209313 0.04730139
-0.028876606 -0.002914938 0.0023756903 0.002791207 0.009761814 -0.022203952 -0.033669636 -0.013856245
0.02666597 -0.092374705 0.008100708 0.037900124 -0.005078359 0.0146741895 -0.011948066 -0.050535828
-0.010429236 0.030152459 -0.02741052 0.005408005 0.0629185 0.04516554 -0.011041352 0.024260309
-0.004127284 -0.0072972775 -0.007538179 0.0012364736 -0.061391894 -0.012611256 -0.07619817 -0.030526202
-0.015880588 0.05130544 0.01892098 -0.017148184 0.024132373 0.0049031354 0.06790559 -0.026629213
0.0571618 -0.0074877697 0.05273606 -0.022843955 -0.049600456 -0.0040279613 0.028357478 0.02040365
0.048280377 0.0052392883 -0.016801864 -7.204577e-05 0.0014002463 0.014823937 0.028343298 0.075833976
0.05693382 0.050214786 0.020349072 0.029641306 0.0071752574 0.004697088 0.044563998 0.006100394
-0.001592917 -0.00472897 -0.006111494 -0.010752561 -0.011895029 -0.008860186 0.050335858 -0.015359821
0.019535521 0.0007343458 -0.015115514 -0.02378789 0.02268977 -0.008675796 -0.040381156 0.017600998
-0.02392732 0.0038788375 0.005890649 -0.0096684275 0.004173749 0.02972077 0.0026108648 -0.0043249885
0.015862696 -0.0071103727 0.055357866 0.00176085 -0.0077467286 -0.015527189 -0.026658649 -0.004415468
-0.012926501 0.0025109753 -0.0029448767 -0.0003428398 0.045593515 0.0020400982 0.0008398889 -0.006918916
0.04595348 0.011877169 -0.025556704 -0.0021181195 0.053700127 -0.025461318 -0.019956546 -0.041283574
-0.011333833 -0.03451696 0.022536192 -0.0142560415 0.0074130027 0.013262001 -0.014898873 -0.043643493

blocks.0.attn.out_proj.weight f4 [64, 64]
00000000: d02d 263e 9ead a23d edcb 07bb 3c6d 223e
00000010: 4f27 2e3d 8ae4 553d d5ec 053e 8e9b 463c
00000020: fc40 4bbe 44fd 003e df7f 88be 795f 5b3e
00000030: e1ce e3bd 08ea 283e 28d3 543e 302b 5ebd
00000040: f76e e23d 35e1 513e 977f 35be f661 cdbd
00000050: 4a37 1bbd 2a55 443e d5aa 18be e8d6 e73b
00000060: 94b2 973c 3cbb 813d 89ee 043e bf02 e7bd
00000070: 32d9 fdbd 5197 333e a327 04be 2ce4 04be
00000080: 477e ce3d 1729 efbd c2bb 6ebd 6378 d2bd
00000090: 667e 04bd fda9 84bc 0447 f93d c468 ccbd
000000a0: b8fe b33d 67e8 5ebe 723c c63d e508 6cbe
000000b0: 296a f3bd 0c11 1cbe f8ba 1b3e a52d f03c
000000c0: 0e37 8d3e 3ff2 213e 65ba 183e 661b 683e
000000d0: 77cf 343e 4a4a 203e 1d62 15be 2cbf 30be
000000e0: 497d 40bd 8855 27be 665e 8b3d 6533 7b3d
000000f0: 6959 a3bc 818f 453d fcc0 1e3e dd63 30be
00000100: 0404 393e 781d 2e3e 1c75 113e e4e6 eabc
00000110: 49ba 1abe 2cde 1e3e c617 67be f45e 33be
00000120: 99a3 10be 07ba 36be d009 683d f019 49bd
00000130: 251a 41be 6431 67bd 396a 9ebd 0e19 533e
00000140: 5c46 34be 8612 ce3d df46 0fbe cd40 28bc
00000150: e74c 33be 1e30 cc3d 21f7 09be 4d1b 2dbe
00000160: 94b2 30ba d36a 28bd 138e 1c3e 052e 21be
00000170: 9f7b 663d 1993 2cbd 54f3 ab3d a302 733d
00000180: 219b 10bc 84cd e2bc 12c2 3abd 8eee f33d
00000190: 41e8 c33d aa65 4e3d 00ca fdbd d219 9dbd
000001a0: cfd1 673e 16a2 ab3c ed36 2b3e 3139 ccbd
000001b0: f21b 1cbd 1141 143e 1968 d03d b0dd 30be
000001c0: 87c0 333e e452 f53c 6848 56be 0f56 4abe
000001d0: 668e 7ebd 6b73 063d 8ff3 d13d 1871 52bd
000001e0: 5f5d 55be c2a2 f33c c2a0 da3d beb5 16be
000001f0: fc48 6dbe c11a 5e3e 5140 1dbe cb28 4a3e
00000200: d1e9 20be dbac d2bd 10a9 953c ca06 923c
00000210: 26bd 3dbc 36df 9bbd 51f1 4ebe 7ba8 063e
00000220: 2096 5b3e 6a35 08be f90a f3bd 1637 1c3e
00000230: b980 793d a263 2bbd 6465 263e 0be0 40bd
00000240: 952a e43c a8bc dc3c 46e7 dcbd 626d c0bb
00000250: 133a dcbc 7651 c93d 7795 0a3e b9d7 45bd
00000260: a986 123d fa22 05be f6a0 663d 1abd 0f3e
00000270: bdd9 3dbe 3b20 4dbe 2228 0ebe d1bc bbbd
00000280: d340 1dbd 8380 a33d d5bf 87bd 3bb7 0ebe
00000290: cef7 063d 9cf7 1d3e de84 dcbd 3dbe 0a3e
000002a0: ed3e 2d3d 41fb 0cbd 350d febd 1296 be3c
000002b0: dba9 ef3d 656e 25be a470 cdbd 5fa7 86be
000002c0: 4b40 f93c 06a5 69bc 177b 833d 722a a63d
000002d0: ce64 66be 611c 433e 78c3 473d cafa ab3d
000002e0: fa5a 5ebe a239 c83d 2b7a fe3d a333 993c
000002f0: e49d 2c3e 8610 453e f206 43be a012 353e
00000300: 6725 af3d f91c c43d 8171 293c d707 d23b
00000310: 58ed 6f3e 93d9 b23c 1939 3e3d c173 c93c
00000320: 83ad ef3d dde6 0ebe dc7b 01be 5faa 3d3d
00000330: 257b a23d 17cc 463e 9936 a3bd 3293 0e3d
00000340: 4ed6 cfbd 228c 963d 49c2 13bc a533 5d3d
00000350: 4f2c cabd d97d 9abd fcad 55be 3a9f 5bbc
00000360: 8415 293e f362 0d3c c113 ddbd aace 05be
00000370: abe3 9e3d 2f02 b63d 3017 23be 29f5 013e
00000380: aa19 d3bd 619e 1a3e d5d5 87bc b963 313e
00000390: 3db1 12be 75d6 2a3e 79c5 723d 00fe cb3d
000003a0: 0856 693e 9721 d6bd c5e5 c3bd 3ebf 0c3e
000003b0: 2b7d a9bd d670 d23a 09f8 2e3e 3019 9ebb
000003c0: e334 79bd 9a61 1ebd 4257 493e 5a8f 173d
000003d0: d403 413e a405 22bd d020 90bd f659 afbd
000003e0: e638 35be 5948 e93b db5b 93bc de2e 3d3e
000003f0: 9b3d 8f3a d38f bd3d 1e1a b3bd 7932 cebd
0.16228414 0.07943271 -0.0020720914 0.15861982 0.042517956 0.052219905 0.13078626 0.012122048
-0.19849008 0.12596613 -0.26660058 0.21423139 -0.111234434 0.16495526 0.20783675 -0.054240406
0.11056321 0.20496066 -0.17724453 -0.1002845 -0.037894525 0.19173113 -0.14908917 0.0070751794
0.01851777 0.0633454 0.12981619 -0.11279821 -0.12394942 0.17538191 -0.12905745 -0.12977666
0.10082679 -0.11677759 -0.05828453 -0.10276868 -0.032347105 -0.016194338 0.12171748 -0.0998092
0.08788818 -0.21768342 0.09679498 -0.23050268 -0.11885483 -0.15240878 0.15208042 0.02931864
0.27581066 0.15815066 0.14914854 0.22666702 0.17657267 0.15653339 -0.14588208 -0.17260426
-0.04699448 -0.16341221 0.068051144 0.06132831 -0.019940095 0.04823256 0.15503305 -0.17225595
0.18067938 0.17003429 0.1420483 -0.02867455 -0.15110125 0.1551444 -0.22567663 -0.1751669
-0.14124908 -0.17844401 0.056649983 -0.049097 -0.1885763 -0.056443587 -0.07735104 0.20615026
-0.17604965 0.10062127 -0.13991879 -0.010269356 -0.17509805 0.09970115 -0.13473178 -0.16904946
-0.00067404774 -0.0411175 0.15288572 -0.15740211 0.056270238 -0.04213247 0.083960205 0.059328686
-0.008826048 -0.027685888 -0.045595236 0.11910735 0.09565783 0.050389923 -0.12392044 -0.076709405
0.2263863 0.020951312 0.16720171 -0.09971846 -0.03811259 0.14477946 0.10176105 -0.17272067
0.17553912 0.029946752 -0.20926058 -0.19759391 -0.06214752 0.032824915 0.10251533 -0.051377386
-0.208364 0.029740695 0.10675193 -0.14717767 -0.23172373 0.21689893 -0.15356566 0.19742124
-0.15714194 -0.10286876 0.018269092 0.017825503 -0.011580741 -0.076109335 -0.20209242 0.13150208
0.21443987 -0.13301626 -0.11867327 0.15255389 0.060913775 -0.041843064 0.16249615 -0.047088664
0.027852336 0.026945427 -0.107862994 -0.0058724144 -0.02688316 0.098299906 0.13533579 -0.048301432
0.035772953 -0.13001624 0.056305848 0.1403698 -0.18540092 -0.20031826 -0.13882497 -0.09166873
-0.0383919 0.07983496 -0.06628386 -0.13937084 0.03295117 0.15426487 -0.1076753 0.13549133
0.04229634 -0.034419302 -0.12404863 0.023264918 0.11702319 -0.16155393 -0.1003125 -0.2629957
0.030426165 -0.014260536 0.06419962 0.081135646 -0.22499391 0.19053794 0.048770398 0.083974436
-0.21714392 0.097766176 0.124256454 0.01870138 0.16857105 0.19244584 -0.19045618 0.17682886
0.08552056 0.095758386 0.010342003 0.006409626 0.23430383 0.021832263 0.04644117 0.024591329
0.117030166 -0.13955255 -0.12644905 0.046305057 0.07933644 0.19413792 -0.07969398 0.034808345
-0.10148297 0.07350947 -0.009018489 0.05400433 -0.098717324 -0.07543535 -0.20867151 -0.013404662
0.16512114 0.008629548 -0.107947834 -0.13067117 0.07758268 0.08887135 -0.15926814 0.12691177
-0.103076294 0.1509948 -0.016581455 0.17323197 -0.14325424 0.16683371 0.059270356 0.09960556
0.22786725 -0.104556255 -0.095653094 0.13744828 -0.08275827 0.0016055356 0.17086805 -0.00482478
-0.060841452 -0.0386673 0.19662192 0.037001945 0.18849117 -0.03955616 -0.070375085 -0.085620806
-0.17697486 0.00711922 -0.017988136 0.1847491 0.0010928394 0.09255948 -0.08745216 -0.10068221

blocks.0.attn.out_proj.bias f4 [64]
00000000: f02d bf3d d8d9 8cbc d87a 363b 699c 14bc
00000010: 9af7 9a3d 9d84 863d be24 943c f4d6 3a3d
00000020: e971 fc3b b8de 633c ecc2 83bd dabc 47bd
00000030: af72 893d 1f40 bdbc 1d3b 3a3c e065 163d
00000040: 2765 223c 8c73 a7bd 21b2 ae3d 0d98 633d
00000050: fdde 0ebd 38a6 2abd a687 cb3c 6a45 73bd
00000060: a1bf debc 5700 1cbc 1ccc 16bd 266a c3bc
00000070: 2f8a c7bc 35e2 163d 5854 a3bd 4401 8ebd
00000080: 1bbc 2a3d a26d 90bc ff81 0dbc be67 52bd
00000090: 21e8 95bd d5ef 8abd 2c96 73bd f253 5b3d
000000a0: 360d 0bbd 4420 6b3d 68a4 1c3d 4d90 71bd
000000b0: d039 e0bc 3e4c 893c 3eb9 b1bd 2ecb 953d
000000c0: 0530 fb3c 0012 86bd 2339 93bc 564a 473d
000000d0: de03 0a3d b71c abba 9b3a 383c 5dd1 2dbd
000000e0: ca78 2f3d 4438 81bc e9b0 93bc 4124 563c
000000f0: 332f 793d 5131 653d 52e5 c83a c25f 23bc
0.09334934 -0.01719372 0.0027844217 -0.009070494 0.075667575 0.06568263 0.018083926 0.04561515
0.007704009 0.013908081 -0.06433663 -0.048764087 0.06711327 -0.023101864 0.011366633 0.03671825
0.009911812 -0.08176336 0.08530069 0.05556493 -0.034880627 -0.041662425 0.024844956 -0.05939237
-0.027190985 -0.009521565 -0.036815748 -0.023854326 -0.024357883 0.03683682 -0.07975072 -0.06933835
0.041683298 -0.017630402 -0.0086369505 -0.051368468 -0.07319666 -0.067840256 -0.059469387 0.053546853
-0.033948146 0.057403818 0.038242728 -0.058975507 -0.027371317 0.016759988 -0.0867791 0.07314144
0.030662546 -0.06546402 -0.01797158 0.048654877 0.033695094 -0.0013054822 0.011244441 -0.042435993
0.042839803 -0.0157739 -0.018028693 0.013070167 0.06083603 0.055955235 0.0015327132 -0.009971561

blocks.0.norm2.weight f4 [64]
00000000: 9bca 6d3f a4b2 863f 7e84 8d3f 44c9 7f3f
00000010: d379 6b3f 5820 853f bcbb 7c3f 03d7 7c3f
00000020: 885a 853f a17e 653f 2698 733f cfdb 823f
00000030: d855 873f 8682 743f 9ea2 853f 4d25 6b3f
00000040: e229 8d3f a1a5 863f 46b0 783f a5cf 843f
00000050: 8cd6 873f 7395 833f bf28 913f a20f 833f
00000060: dad2 7c3f 0722 853f f0a8 843f 2faf 903f
00000070: ebe0 883f 1b6e 853f e557 813f e854 703f
00000080: 5f91 7c3f 4357 873f a472 833f 72de 773f
00000090: cd54 7c3f 7d05 863f efcf 743f 1a99 903f
000000a0: f76a 8a3f b8f2 823f ec44 8b3f f43a 8d3f
000000b0: 6d45 8d3f 4fbd 823f b3ff 853f 990d 843f
000000c0: c345 813f 9b9e 793f f091 813f 8cba 843f
000000d0: dfa4 813f 7ab7 803f eb5f 8b3f 6bdc 813f
000000e0: d4a2 783f 246c 703f 783e 803f 240e 843f
000000f0: 8a12 663f 1603 893f a578 813f be63 863f
0.92887276 1.0523267 1.1056058 0.9991648 0.91982764 1.0400496 0.9872396 0.9876558
1.0418253 0.89646345 0.95154035 1.022333 1.0573072 0.9551166 1.0440252 0.9185379
1.1028407 1.0519296 0.9714397 1.0375868 1.061235 1.0279983 1.134056 1.0239146
0.98759234 1.0401009 1.0364056 1.1303462 1.069364 1.0424227 1.0104948 0.93879557
0.9865932 1.0573505 1.026936 0.968238 0.98566896 1.0470425 0.9562978 1.1296723
1.0813893 1.0230322 1.0880408 1.1033616 1.1036812 1.0214022 1.0468658 1.031665
1.0099415 0.9750764 1.0122662 1.036943 1.012844 1.0055993 1.0888647 1.0145391
0.97123456 0.9391501 1.0019064 1.0316815 0.8987204 1.0704067 1.0114943 1.0499189

blocks.0.norm2.bias f4 [64]
00000000: 5cf2 b83d 5478 9f3c 7e75 563c e9c3 10bb
00000010: 0357 9f3d fb14 9bbc de16 1cbd 7894 b13d
00000020: 1730 d03c 851a 1b3b 1413 22be 4f45 c5bb
00000030: cd7b a43c 1349 42bd 5716 c3bc efcd adbc
00000040: 682b 853d 2e1b 6ebd 4496 433d a7bc 0f3d
00000050: 5f78 0ebe b7b7 93bd e31b 353d a879 94bd
00000060: 6f1e 1b3c a4dd d4bc 4ca7 b7bd 12bb fe3c
00000070: 0515 15bd d239 0a3d 81a7 2dbb b299 37bc
00000080: 6b89 2f3d 4e88 b23c 6488 d53a 9c85 b0bd
00000090: 31f5 76bc b95a b3bd eb8e 70bd 38d3 cd3c
000000a0: cf6e 823c 7d81 fcba c59d 593d 095e 98bc
000000b0: 415e a3bc 61bc 133d fd2b 8e3a 1980 033d
000000c0: e7b1 16bd 396b d4bd 4590 50bd 93cf f43d
000000d0: 737b 2b3d 0461 da3c b05f b5ba 3821 12bd
000000e0: 6f0c 873d 6295 293d 18e3 eabc da7f f43a
000000f0: 5e9c 013d 1495 313d d027 b63c 2a48 46bc
0.090306014 0.019466557 0.013089536 -0.0022089428 0.07780268 -0.018930903 -0.038107745 0.08670896
0.025413556 0.002366693 -0.1582759 -0.006020225 0.020078564 -0.04743297 -0.023814363 -0.02121636
0.0650242 -0.05813139 0.047750726 0.035092022 -0.13913105 -0.07212775 0.044216048 -0.072497666
0.009467705 -0.025984593 -0.08967456 0.031095061 -0.036397 0.033746548 -0.0026497545 -0.011206077
0.04285566 0.02179351 0.0016291258 -0.08619234 -0.015073107 -0.08757538 -0.058730047 0.025125131
0.015921978 -0.0019264665 0.053128976 -0.018599527 -0.019942405 0.036068324 0.001084685 0.032104585
-0.036790755 -0.103720136 -0.050918836 0.11953654 0.041865777 0.026657589 -0.0013837721 -0.03567621
0.065941684 0.04140223 -0.02867274 0.0018653825 0.031643264 0.043355063 0.022235781 -0.012102166

blocks.0.ffn.0.weight f4 [128, 64]
00000000: dd05 babc 73e1 bdbd e838 f4bd 19fa d23d
00000010: 412a cfbd 63c5 99bd 4081 513e 7680 2e3e
00000020: 65a0 2f3b 919d 413d 4d08 babd f234 243e
00000030: d7f1 e33d 6dc3 b6bc dd20 b23c c938 00be
00000040: c321 9dba 492a 943d 2dc3 dabd 50b9 47be
00000050: 43d0 ff3d 0c40 c2bd 7755 1f3e e49d 88bd
00000060: 077c 303e 858e 32be edd0 c43d 91fb a03d
00000070: f0d9 923c aa96 87bd 948b f13d 6134 fb3d
00000080: 2495 fdbc eca3 ab3d 0844 12bd 32d9 34bd
00000090: 80dc 473c b5cf 763d e0f2 38bd cd74 22bd
000000a0: 76ab d63b 3d92 813e f452 a7bd c829 20be
000000b0: c840 4fbe 5c80 31bd 2b35 0a3e 2ae2 febb
000000c0: 9538 97bd badf 813d 5d42 8dbd 800b aabd
000000d0: 2647 533d 5973 d43d 390a 0b3e 715d bbbd
000000e0: 3693 98bc 83c1 b03d 6252 b23d 1338 a53d
000000f0: 2c4e a03d f5ff 6bbc 96fe a9bc e9d8 bd3d
00000100: 831d 0f3d fa22 c1bc 13f6 343e f271 753e
00000110: 9142 e5bd f63d 13bd 81cd 433d 991c 0a3c
00000120: a458 f13d 30a6 c73d b4a1 f33d fdf0 653d
00000130: 5f74 823e 34e7 493c 9ddb a13c ce32 c6bd
00000140: 1b78 183e c938 383d 23f9 c83c a65c 52bd
00000150: f4ea 943d 88ed 85bd 32d5 53be a161 af3d
00000160: e16a 313e a06e dfbb 64db 7ebc 9d0e c23d
00000170: 9d38 12be 42e2 a8bb 67f3 de3c 6675 8f3d
00000180: c9e6 29be 0077 16be 4911 9e3c 9d63 c1bd
00000190: ca4c 96b9 59ab 123c 34cf 543c 5ab8 3b3d
000001a0: 5e5d 41bc 4f3a 173e ee2d f1bc 9ebd adbd
000001b0: 1272 3a3e b35e 133e fcf3 05be 70e0 5bbd
000001c0: 2734 303e 2fc2 04be f149 d73d e293 ff3d
000001d0: 45f1 ac3d a351 61be ed67 8b3d de8e 40bc
000001e0: f7d7 3abd e62f cf3d ffb0 85ba afbf 0f3e
000001f0: 5938 233e a84f 02be 4888 f83c aaaf df3d
00000200: 58b5 01be 978f 3fbe 301b 043e 572b 863d
00000210: c2ca 9a3c 096d 38bc d171 e33d 2445 55bd
00000220: 611c b43d 6286 83bd 80b9 cabd 5cf1 1b3e
00000230: 797f 953d 44ab 03bd ed8b abbd 1879 aebd
00000240: 45a4 00be 9056 3f3c 8c5d 963c aab7 4b3d
00000250: f22a 403d 4370 fe3d 7156 01be 2281 d23d
00000260: 7956 0ebe ad58 ca3d 9b05 363e 0bcd 41be
00000270: 6270 c6bd 4b08 5f3d 7289 4abd d0f9 1d3e
00000280: 75a5 143e 5ce2 893d 075f b8bd ee9d f1bd
00000290: 53cf 4abd 2977 1c3e c871 9f3d 42ec 59bd
000002a0: cfa1 8ebc 0431 19bd 8a06 09bd 1afd 223d
000002b0: 7515 4c3d cce5 c7bd 1926 b83d 50d1 b4bd
000002c0: 5e8e aebd 4f18 d33d 614b 09bd a39f 4cbd
000002d0: 24c5 81bd 1d4c 9439 e40f 3a3e 2f34 07be
000002e0: 5612 ddbd 7106 fc3d c1d6 083e cf6c 2ebc
000002f0: 7096 0ebe 993d f2bd ef0c 71be dbab a3bd
00000300: 8c86 1abe 1f68 03be 117d 9cbc 4f68 81bd
00000310: 170f ea3d 6185 5a3e fd9f f33c 262c cdbd
00000320: 705d b23d bea0 75bd 7d64 cfbc a769 943d
00000330: 06d0 ed3c 33f3 b1bd f62c 683e 51c5 a6bd
00000340: 3d3f 2ebe 33f0 5d3e cd18 bdbd 44a3 36be
00000350: 4081 0d3e 0dce 20be 0726 04be f7b0 e9bd
00000360: 30e2 2bbd dbc0 ffbc 2980 de3d cd84 803d
00000370: e7c3 103b 8e7e 843d 25b7 56bd 7905 523d
00000380: 9d5e 0b3e 9792 553e 6599 60bd d098 0c3c
00000390: 4f1f 18be c138 063c f604 48bc eaab 99be
000003a0: 0755 013d 35b6 f1bd 6b74 4ebd ea64 903d
000003b0: 7cee aa3d 8987 9f3d 758b 883d 24cf 4fbe
000003c0: 3da4 f8bd 7242 083d 2432 ca3d b06f d43c
000003d0: 008e 6f3d 315f 4f3c d4e0 a43d 7a6b fa3d
000003e0: 4cc2 183e e806 e1bc 4e2b a13c bddd 1abe
000003f0: 9cba fd3d 0199 823c 64bd 4a3d c1c9 d03d
-0.022707874 -0.09271517 -0.119249165 0.103016086 -0.10115481 -0.07508352 0.20459461 0.17041191
0.0026798483 0.047269408 -0.090836145 0.16035822 0.11130112 -0.022309983 0.021744186 -0.12521662
-0.0011988211 0.07234628 -0.10681758 -0.19504285 0.12490895 -0.09484872 0.15559946 -0.0667074
0.17234813 -0.1743718 0.09610162 0.078604825 0.017926186 -0.06620534 0.117942005 0.1226585
-0.030954905 0.08380875 -0.03570941 -0.044152446 0.012198567 0.06025668 -0.0451535 -0.03966217
0.0065512015 0.25306883 -0.08170119 -0.15640938 -0.20239556 -0.043335304 0.13496844 -0.0077784257
-0.07383839 0.063415006 -0.068974234 -0.08302975 0.051581524 0.10373563 0.13578118 -0.09148682
-0.018624883 0.086306594 0.087071195 0.08067336 0.0782741 -0.014404287 -0.020751279 0.09269888
0.034940254 -0.023576248 0.17671995 0.23969248 -0.11194337 -0.035947762 0.047803406 0.00842967
0.11784485 0.097484946 0.11896077 0.056138027 0.2547941 0.0123231895 0.01975804 -0.09677659
0.14889567 0.04497603 0.02453286 -0.051357888 0.07271376 -0.06539446 -0.20686796 0.08563543
0.17325927 -0.0068186074 -0.0155552365 0.094754435 -0.14279409 -0.005153925 0.027215673 0.07004814
-0.16591944 -0.14693832 0.019295352 -0.09442828 -0.00028667442 0.008951985 0.012988854 0.04583011
-0.011802046 0.14768337 -0.029440846 -0.08483432 0.18207577 0.14391594 -0.13081354 -0.053680837
0.17207395 -0.129647 0.1051215 0.12479378 0.08444456 -0.22003798 0.06806932 -0.011752812
-0.045616116 0.10116558 -0.0010199844 0.14037965 0.15939464 -0.12725699 0.030338421 0.10922177
-0.12666833 -0.18707119 0.12900996 0.06551235 0.01889551 -0.011256465 0.11105693 -0.05206789
0.08794475 -0.06422116 -0.098986626 0.1522879 0.07299704 -0.032145754 -0.08376298 -0.085191905
-0.12562664 0.011678353 0.018355154 0.049735703 0.046915956 0.12423756 -0.12630631 0.102785364
-0.13900174 0.09880195 0.17775576 -0.18925874 -0.09689404 0.05445127 -0.049447484 0.15427327
0.14516242 0.06732628 -0.090025 -0.11797701 -0.049514126 0.15279831 0.07785374 -0.05320383
-0.01741114 -0.03740026 -0.0334535 0.039792158 0.04982515 -0.09760627 0.089916416 -0.08828986
-0.08523248 0.10307371 -0.033519153 -0.04995693 -0.0633643 0.0002828547 0.18170124 -0.132035
-0.10794513 0.12305916 0.13363172 -0.010646059 -0.13924575 -0.11828155 -0.2354009 -0.07991763
-0.15090388 -0.12832688 -0.019102605 -0.063187234 0.114286594 0.21339943 0.029739374 -0.10018186
0.08709228 -0.05996775 -0.025316471 0.07246714 0.029029857 -0.08688965 0.22673401 -0.08143104
-0.17016311 0.2167366 -0.09233246 -0.17835718 0.13818836 -0.15703602 -0.12905131 -0.114107065
-0.041963756 -0.03121989 0.10864288 0.0627533 0.0022089423 0.06469451 -0.052420754 0.05127475
0.13610311 0.20856701 -0.05483379 0.008581355 -0.14855693 0.008192242 -0.012208214 -0.30013973
0.03157523 -0.11802331 -0.050403994 0.07050498 0.083462685 0.07789523 0.06667224 -0.20293862
-0.12140701 0.033266492 0.09872845 0.025932163 0.05848503 0.012656973 0.08050695 0.12227531
0.14917868 -0.027469113 0.01967397 -0.15123649 0.123891085 0.015942099 0.049497023 0.101947315
