phase3/outputs/transformer.pt (torch, 317087 bytes, 35 tensors)

cls_token f4 [1, 1, 64]
00000000: e826 7f3c fad3 273c 3a98 083d 97a2 aabd
00000010: 8096 debc 3d69 a73c 265e e63a 97e2 313d
00000020: f660 fdbc 3914 9d3c 9d0e 123d 861a 293d
00000030: f508 983b 827c bb3c 8568 fcbc 8282 b33b
00000040: 58b9 6abc 2556 1a3d 3098 663c ec1d d43b
00000050: f984 b33b 94da a6bc e0ab 5abd 2416 403c
00000060: f655 763d 0964 8d3c 662e 6abd 5441 f5bc
00000070: f6b9 443c e3fc 74bb 775d 87bd e240 88bd
00000080: e508 8e3a c24a 3dbd 4d4c 2cbd bf4d 28bc
00000090: 588e 2f3d 50cd c0bc 9e1f 75bc a20a 5bbd
000000a0: f676 8c3b ac53 783c b254 88bb ddf5 d3bc
000000b0: 68c3 fabc 1208 a8bc a857 043d 8f2b 6cbd
000000c0: 18ef 9d3d 717e 063d fe12 ca3b 8d2c 503c
000000d0: dbc7 713d 807b c7bc 0798 0bbd ed32 26bb
000000e0: ad43 0cbc 2093 cfbb 39d9 58bd 63b4 893b
000000f0: 5757 213c 94ed 4dbd f4fc 88bb 3489 c7bc
0.015573241 0.01024341 0.0333483 -0.08331793 -0.027171373 0.020435924 0.0017575666 0.043428984
-0.030930024 0.019174682 0.035658468 0.04128506 0.0046397396 0.022886518 -0.030811558 0.005478204
-0.014326416 0.03767981 0.01407437 0.0064732935 0.005478498 -0.020367898 -0.05338657 0.011724029
0.060140572 0.017259615 -0.057173155 -0.029938377 0.012007227 -0.0037382178 -0.06609624 -0.066530004
0.0010836391 -0.046213873 -0.042064954 -0.010272442 0.04286036 -0.0235354 -0.014961151 -0.053476937
0.004286642 0.015156668 -0.004160487 -0.025874073 -0.030610755 -0.02051166 0.032310158 -0.05765873
0.07711619 0.032835428 0.006166815 0.012705934 0.059028488 -0.024350882 -0.03408053 -0.0025359944
-0.008561057 -0.0063346773 -0.052941535 0.004202412 0.009847484 -0.0502754 -0.004180545 -0.024357416

input_proj.0.weight f4 [64, 39]
00000000: 43e3 41bc f012 c73d 5397 21be ff06 bdbd
00000010: ece6 f7bd 1950 783e 94b9 223b 3374 17bd
00000020: 3321 1d3d 3838 12bc 31ba 68be 8307 7a3e
00000030: d06f b33d 86ca 25be e6d4 0bbe f1d9 00bc
00000040: 9244 19bd ae5c 4c3d b8da 273d c1f4 14be
00000050: 4bb8 59be 9382 8cbe 1f34 ba3c ff18 e1bd
00000060: 1ce5 84bc 126a bdbd 04fb 1ebe c04b d7bd
00000070: 8a31 293e 2af9 16be bf64 70bd b14c 073e
00000080: 8d02 8fbd 67ef 893d cace 133e b2f1 32be
00000090: 68a7 65bd fa7e 833e 2733 8fbd adec 14be
000000a0: 3158 15bd 6bd9 dbbd b440 1c3d 00dd 463d
000000b0: 9305 6fbe b48b a3bd b325 61be adbf fcbd
000000c0: 9c43 323e 6912 243e c2bf 7bbe b05a 093e
000000d0: b572 9fbc 1230 323e 536b 6bbc e1cf f2bd
000000e0: b386 8bbe d32a 543d ae82 943d e368 d63d
000000f0: 3d4a 453e 4aed 6d3d af7b 5cbe f8a0 45be
00000100: 1719 1c3c e85f 0ebe e723 aa3d 4267 023e
00000110: 0886 e83d ad52 d6bd 49cc 78bd f163 3dbe
00000120: 80b0 f93d 913d 0cbe c375 34be 8be4 863d
00000130: 7b91 443e 4f49 2a3e 4a1a 933d 822e 023e
00000140: a7de 063d 3738 f33d d6ea 79bc d01a 473e
00000150: 0a20 d13d e858 a9be 4e69 d6bd dab4 d13d
00000160: 58e3 82bd 3262 29be 38a1 533d 7bd2 42be
00000170: 56de 3ebe 478f 79be 5486 33be 7ded b33d
00000180: 813b 033d cc16 003e 8103 983c 5f00 803e
00000190: ba30 f6bc d74b cabd 680b 813d b2e7 f5bd
000001a0: fda2 f43d 52ce 85bd 2b6d 373e bf16 513d
000001b0: 499e 183c 6abd 47bd 58c9 363e 6e14 353e
000001c0: 25ce dc3c 4df5 77be 47bc 413d 21f7 04be
000001d0: 8459 2d3e 43de 28be 0709 95bd 8fbf 0c3d
000001e0: 8e69 943e 7a07 843e e046 3d3e a753 87bc
000001f0: f9ae 563e a531 6cbe d937 fa3d 909c 88bd
00000200: 8834 103c b8a8 973d 76aa b83d 3479 10bd
00000210: 23ed b6bb 14aa aa3d a2ff 37bd e8d4 c4bd
00000220: 9f78 b53d 42e5 003e 472c 933d e33f ee3c
00000230: 4507 3dbe 72a5 12be 177b ef3d fa49 b43d
00000240: 67d6 9b3d 4cab 013e 0611 bd3d 95e4 15bd
00000250: e47d 4f3d e2a7 50bc b5ec 443d 5aa9 b6bd
00000260: 5423 d43d ffe5 f63d a62b 943e 1dc2 673e
00000270: ffbd 633c eb3b 8cbd 65a5 213e d904 bcbe
00000280: ea6f 973e 247f d6bd 4f4d 5bbe 1454 cf3c
00000290: 4fdd 493e 5970 233e add4 e7bc 2088 483e
000002a0: 1fa9 35be 05e9 2b3d bb8e 8e3d 48e8 223e
000002b0: ec89 b23d ae91 36be 408b a23d 021b 5a3e
000002c0: f4d1 02be 3010 7dbe 3467 ca3d d043 1bbc
000002d0: f4c3 463e 9806 b4bd b7e8 36be 03ce 3abe
000002e0: b504 aa3d 3cdf 20be 938d 89bb 61bf fb3d
000002f0: 87ea 0a3d c29d 043e 4edc 7b3d cb52 23be
00000300: 37b6 ad3d 6b46 c13d 2b15 60bd f1af 18be
00000310: 2ec1 ccbd 7b6e 84ba eaad 63be 9668 c13d
00000320: 36ee be3c 85b1 3e3e 9778 7fbd e165 9d3d
00000330: fa77 093e 12a2 18be 675e 9abb a7e9 b43d
00000340: fb2b 8abc 4d0f 8cbd 372e 02be 51a0 4a3e
00000350: f306 663e 46b5 f43d 03ce 2c3e bead b9bc
00000360: 4bd9 a3be a935 99bc 5a85 92be 9fb9 46be
00000370: 7a49 eb3d 8c5c 753c 3602 90bd b5cc 43be
00000380: c96c c8bd bb8a 7d3d 20a9 f73d 1ecb e33d
00000390: 112d 793d ecd0 3a3d d7d3 05be 814f 7abe
000003a0: 8a6c 83bc e8fe f13a 6b90 abbd c889 e4bd
000003b0: dd27 173e e8db 3e3e 07dd 94be eacf 2d3e
000003c0: 4294 33be d5cb 4c3c f97e 743e d641 2e3d
000003d0: 9ce6 2dbd 8609 f4bd a174 d6bd aa89 323e
000003e0: 2db5 e13c c8e9 543e e1a2 babd 3c19 5ebe
000003f0: ccf4 803e 1b9e 6dbd 17c3 363b 7753 363e
-0.011833969 0.09720409 -0.15780382 -0.0922985 -0.12104592 0.24249305 0.0024829851 -0.03697605
0.03836174 -0.008924536 -0.22727276 0.24416928 0.08761561 -0.16190538 -0.13655433 -0.007864461
-0.03741891 0.049893074 0.04098007 -0.14546491 -0.21261708 -0.2744337 0.022729931 -0.10991096
-0.01622253 -0.09248747 -0.15525442 -0.10512495 0.16522804 -0.14743486 -0.05868983 0.13212849
-0.069829084 0.067351155 0.14434353 -0.17475012 -0.056067854 0.25682813 -0.069921784 -0.1454341
-0.03646106 -0.107348286 0.038147643 0.048550606 -0.2334197 -0.07985631 -0.21987037 -0.12341247
0.17408603 0.16022648 -0.24584869 0.13413501 -0.019463876 0.1740115 -0.01436885 -0.11856056
-0.27251205 0.051798653 0.07251488 0.10469224 0.19266601 0.058087625 -0.21531557 -0.19299686
0.009527466 -0.13903773 0.08307629 0.12734702 0.113536894 -0.10464988 -0.060741697 -0.18495156
0.12191868 -0.1369536 -0.17623048 0.0658656 0.19196121 0.16629528 0.071827486 0.12713054
0.03292718 0.118759565 -0.015253743 0.19443822 0.10211189 -0.33075643 -0.10469304 0.10239573
-0.06391019 -0.16541365 0.051667422 -0.19025604 -0.18639502 -0.24371062 -0.17531711 0.08785532
0.03203917 0.12508696 0.018556358 0.25000283 -0.030052532 -0.098777466 0.06301004 -0.12007083
0.1194515 -0.06533493 0.17912738 0.051047083 0.009315082 -0.048764624 0.17850244 0.17683575
0.026953766 -0.24214669 0.047298696 -0.12984897 0.16928679 -0.16491036 -0.072771125 0.034362372
0.28986782 0.25786954 0.18484068 -0.01651938 0.20965184 -0.23065813 0.12217683 -0.06670487
0.008801587 0.074052274 0.09016888 -0.03527184 -0.005582468 0.08333221 -0.044921525 -0.09610921
0.08860897 0.12587455 0.071861796 0.029083198 -0.18459804 -0.14320925 0.116933994 0.088031724
0.076092534 0.12663001 0.092317626 -0.036594946 0.050657168 -0.012735339 0.048077304 -0.0891902
0.10358301 0.12055587 0.2893955 0.22632642 0.013900279 -0.06847366 0.1578575 -0.36722448
0.2957757 -0.10473469 -0.2141621 0.025308646 0.19713329 0.15960826 -0.028299654 0.19583178
-0.17740296 0.04197027 0.069608174 0.15908921 0.08717713 -0.1782901 0.07936716 0.21299365
-0.12775403 -0.24713206 0.09882966 -0.009476617 0.19410688 -0.0879032 -0.17862211 -0.1824265
0.08301679 -0.15710157 -0.004197785 0.12292362 0.03391507 0.12950805 0.061489396 -0.15949552
0.0848202 0.09437259 -0.054707687 -0.14910866 -0.099977836 -0.0010103727 -0.22234312 0.09443776
0.023306947 0.18622406 -0.062370863 0.076854475 0.13424674 -0.14905575 -0.0047109607 0.08833628
-0.016866675 -0.06838856 -0.12712942 0.19787718 0.22463588 0.11948638 0.16875462 -0.022665855
-0.3200172 -0.018702345 -0.28617364 -0.19406746 0.11488624 0.014975678 -0.07031672 -0.19121058
-0.09786374 0.06189988 0.12092805 0.11122726 0.060833994 0.0456094 -0.13069092 -0.24444391
-0.016042966 0.0018462809 -0.08377155 -0.11159092 0.147613 0.18638575 -0.2907488 0.16973844
-0.17537025 0.012499769 0.23876561 0.042543255 -0.042456254 -0.11915879 -0.10471464 0.17435327
0.027552212 0.20792305 -0.09113098 -0.21689314 0.25186765 -0.05801211 0.0027887279 0.17805277

input_proj.0.bias f4 [64]
00000000: f6db ef3d 066a 9bbd ab6f 27be b360 653d
00000010: aaeb 44bd 66ab 913d 7a15 773d 7bd3 f13c
00000020: f2ec 873e 35e4 22be f5c7 24bd 6b09 bdbd
00000030: b0d0 d3bd 0f31 033d ab55 823c 9f7c 8ebe
00000040: c223 f8bd 299a 50bd d8a6 d23d e516 043e
00000050: c8da 6c3b 5d55 fc3d adbd 80bd 72ae 623d
00000060: 3959 e5bd bc41 203d 2c9b b4bc 96d0 f13c
00000070: ac32 0a3c c012 803d c3f6 d43d ea6a 483d
00000080: f9f3 15be 472b 243d 40c7 553e 5993 92bc
00000090: 928a 74bd 8edf 92bd 8db4 5fbd d5ef 643d
000000a0: 4930 3e3d c70f 8ebd 3a12 c63d ee2d ae3d
000000b0: ed18 f43d d058 333c a127 8abd 00c8 673d
000000c0: f906 dc3d 87c0 6ebc 5cbf f5bd 04d7 c1bd
000000d0: 802d 8dbd a391 73bd d57a 903c edf8 0bbe
000000e0: a0d6 2dbd 8105 bf3c 4c64 babc 5ade 183d
000000f0: 1a54 563e e321 76bd 23c7 06be ade5 0c3e
0.11711876 -0.07588582 -0.16351192 0.056000423 -0.04807631 0.0711277 0.060323216 0.029519787
0.26547962 -0.15907367 -0.040229756 -0.09230312 -0.10342538 0.032029208 0.01590999 -0.27829453
-0.12116195 -0.05092827 0.10285729 0.12899359 0.0036141146 0.12320969 -0.06286178 0.055342145
-0.111986585 0.03912519 -0.022046648 0.029518407 0.008434933 0.06253576 0.103986286 0.048930086
-0.1464385 0.040080335 0.20876789 -0.017892526 -0.059702463 -0.07171546 -0.054615546 0.055892784
0.046432767 -0.06936603 0.09671445 0.08504854 0.11918817 0.0109464675 -0.0674584 0.05658722
0.107435174 -0.014572269 -0.119993895 -0.09464839 -0.06893444 -0.059465062 0.017636696 -0.13669176
-0.04244101 0.023318054 -0.022752903 0.037321426 0.2093052 -0.06009091 -0.13161902 0.1375949

input_proj.1.weight f4 [64]
00000000: 47eb 783f 5e45 6d3f da86 8d3f 721d 7d3f
00000010: 0803 7d3f 913a 813f 3e00 823f ade7 8f3f
00000020: 4f8b 963f b0b8 7f3f 239a 813f 7ed2 723f
00000030: 073a 843f 7081 7c3f aafd 883f 7fa2 853f
00000040: bcbe 833f cb23 813f 53a6 7b3f dd43 823f
00000050: d596 803f d4ef 893f bb8b 8e3f 98cf 8c3f
00000060: f6f9 843f 6ed7 863f 492c 833f daa1 8a3f
00000070: 5ebb 843f acf9 803f b71a 8e3f 4b04 803f
00000080: 8cf8 703f f0d3 753f 7421 843f 1605 8a3f
00000090: 1ee4 8b3f dabf 7b3f eb63 873f 88c3 843f
000000a0: eb4f 843f e6e0 933f 7add 7d3f 4c16 7f3f
000000b0: 7beb 883f 06f1 743f 2fd5 803f 84c6 7c3f
000000c0: 4143 893f c4d4 863f dc94 843f 9f7b 843f
000000d0: 5238 843f f693 883f 5d47 833f cfbb 913f
000000e0: 9727 833f 5bc0 803f 20c5 7b3f 2c23 7f3f
000000f0: 6225 833f 6d05 833f 375f 933f 55b7 7c3f
0.97234005 0.9268397 1.1056778 0.98873055 0.9883275 1.0095998 1.0156324 1.1242577
1.1761264 0.99891186 1.0125164 0.94852436 1.0330209 0.98635006 1.0702412 1.0440215
1.0292583 1.0089048 0.98300666 1.017696 1.004603 1.0776315 1.1136392 1.1000853
1.0388782 1.0534494 1.024789 1.0830643 1.036968 1.0076194 1.1101903 1.000131
0.9412925 0.96026516 1.0322709 1.0782802 1.0928991 0.9833962 1.0577368 1.0372171
1.0336889 1.1553009 0.9916607 0.996434 1.0696863 0.9568027 1.0065058 0.9874041
1.0723649 1.0533681 1.0357928 1.0350226 1.0329688 1.0670154 1.0256153 1.138544
1.0246457 1.0058702 0.98347664 0.99663043 1.0245783 1.0236031 1.1513432 0.9871724

input_proj.1.bias f4 [64]
00000000: cf51 0fbc 9ca7 03bd 17a7 8ebd 1300 8cbd
00000010: b94e 783b b8be d83c 1933 003d b560 163c
00000020: 12bc 1e3e e570 a3bd 73c9 09bd 460f e9bd
00000030: dd25 743c 6aae 92bc 9042 713d 35b6 b0bd
00000040: 29a0 debd 3fe4 223d 5feb 5e3d 4729 bc3d
00000050: bdb4 88bc 60d4 1bbd 4b61 e8ba 1d73 aa3d
00000060: 25f9 28bd 5900 dd3d caa4 be3b c02f 95ba
00000070: 6fbd ce3c 708a ff3c 9e4d 13bc d58e cb3c
00000080: eb36 89bd 7622 893d ee5a ba3d 2349 12bd
00000090: 84dd e83b 73d9 26bd 9119 bcbd 7291 a93b
000000a0: 2046 f23c 0b23 693d b0f1 063d b7c9 f93d
000000b0: 6507 7ebc f12c d3bd 78e0 913d 62c1 da3b
000000c0: 5391 343b 0dbc 1ebd 318c 62bd b2b4 cbbd
000000d0: ba67 5cbd 42f5 80bb 9217 c53b caad 1cbc
000000e0: ea7d 87bd 4618 7ebc cfbc a3bd cea5 373c
000000f0: 50a8 0f3e a2cd 323c 8a73 a1bd 24f1 5d3d
-0.008747532 -0.032142267 -0.069654636 -0.06835952 0.003788872 0.02645813 0.03129873 0.00917833
0.1550143 -0.07980517 -0.033639383 -0.11379866 0.014901605 -0.017905433 0.05890137 -0.08628503
-0.10870392 0.039768454 0.054423686 0.091875605 -0.016687745 -0.038044333 -0.0017729191 0.08322737
-0.041253228 0.10791082 0.005817984 -0.0011382028 0.025236813 0.031193942 -0.008990673 0.024848381
-0.06699928 0.06696026 0.09099375 -0.03571428 0.007106485 -0.04073472 -0.09184564 0.005174809
0.029574454 0.056918185 0.032945335 0.12196677 -0.015504693 -0.10311306 0.07122892 0.006675885
0.002755244 -0.038753558 -0.05530948 -0.09946574 -0.05380986 -0.003935487 0.0060147727 -0.009562919
-0.06615813 -0.015508717 -0.07994997 0.0112089645 0.1402905 0.0109132845 -0.078833655 0.054185048

pos_enc.pe.weight f4 [65, 64]
00000000: b8b4 0f3e 1801 383d 7bd9 843f 7424 35bf
00000010: 198a 0cbf f03e c63d 65bf 853f a394 8dbe
00000020: f403 283f a6f1 553e 8805 a8bf 3713 e1bf
00000030: c247 143f 47d6 b0bf ec03 11bd 65b1 81bf
00000040: dcd2 8fbe 7be8 dabf f5e0 eabd 0b6c a73f
00000050: 8ba5 e0be 8e1b 8abf 645e d33e df67 e3bf
00000060: b46c 98bf d5fa 0ebc 507e 963d 56cd 44bd
00000070: b2f3 0e3f 0ff9 b53d b71d 303f 9377 d13f
00000080: fd43 53bf 96ee dd3e 3217 353f ba03 aa3e
00000090: 7b2a dbbf 4efd 9ebe 5c7b a9be dc5f b83f
000000a0: 8e7d 2bbf 1053 25bf 14e0 a23e 7b16 923f
000000b0: 8c77 13bf c13b 9bbe 3db4 27bf e3e2 5540
000000c0: 9c7c 4fbf 8fce 96be ff0f 84bf 1765 533e
000000d0: 1c88 b7be 7c89 bb3e caa7 363f cde5 813f
000000e0: c26b b8bf aafd 6cbe 9489 b2be e695 bdbf
000000f0: 16b4 823e 1b1d a13f 42a3 373e d4fb ed3d
00000100: adf7 f63f 21c0 283f 54d4 ddbf fac2 a2bf
00000110: 16c8 e9bf 18ab 253e 18c6 50bf 8f14 d7be
00000120: 048a a83f 7fc9 09bf da79 8d3f e8ad 023c
00000130: 0e90 dabc 0095 b43f 1e32 81bf ce47 863f
00000140: 7603 a1be 6545 96bf b461 48bf 1adf 393f
00000150: 490d 42be be5a b3bf d626 833b 2c3f 7c3f
00000160: ab48 553f 24c2 d83e 2a84 95bf d10f c2bf
00000170: 4ff3 52bf 920a 4fbf 2135 4ebf c635 b2bf
00000180: 03b9 463e 5b3c 88bf baf2 c6bd e375 0b3f
00000190: 716c 9abf 9333 f9bf 6ab4 22bf fc83 923d
000001a0: 3441 453f cffd 6b3e e9d5 a23f 8c78 dfbe
000001b0: 8c74 b9bf 6b72 82bf 02b0 653f 0e63 37bf
000001c0: f5d0 9a3e 29c1 e73d 75fa 7dbf a75b fa3e
000001d0: db81 993f 4c60 1140 1e3b 1040 5135 37be
000001e0: 7f8e e1be 7d98 afbf cdfa c0bd 792e 8e3f
000001f0: 2af8 4fbe 2b2c a7bd 8399 413f d580 ea3f
00000200: a016 ed3f 74c8 e7bd 46e9 c3bd 3a6f 73bd
00000210: 1cf9 0dbe ebc3 9a3f 112c 623e cf20 6d3f
00000220: 8cf2 593e d077 ddbe 5f22 e13e 1819 89bf
00000230: 3bdb 87bf 770e 3c40 3ffc f63e 4619 94bf
00000240: ddad 2c3f 634c 293f bd66 243f 3704 cfbf
00000250: 5c8b a0bf 7e2b 68bf 719d 8abf ed0c 9abf
00000260: 7adb f0be a483 f5be 8f14 553f a160 cbbe
00000270: 2003 3dbe 451a 79bd 4f36 a63f 7409 41bf
00000280: 4f4a c33e ae89 36bf ebf0 ba3f 5185 48c0
00000290: 645a 85bf aa09 2cbf 76d5 09bf 523e 6440
000002a0: 6b8d 05be 73f1 903e cbe0 c93e 54cd c03e
000002b0: 94ec 323f 96cd 003f afe5 d4be e051 1bbf
000002c0: cd2f 56bf 4a4f 3f3e 3c2a 59bf 7b81 90bf
000002d0: c219 e73e a1ec f73f 43d4 ddbf 2891 963f
000002e0: cb1c 5a3f 7052 8fbc d3b7 09c0 1ece 2040
000002f0: 0d7e 893f 32fb 09bf 1b74 633f 593c 0a40
00000300: f041 2fbe 7c99 dc3e 3c03 45bf 15a8 38bf
00000310: 75d7 adbf cb5b 9f3f c086 97bf d788 88bf
00000320: c403 b8bf c8d6 1b3f 1f2c 07c0 99cc 26be
00000330: 5bfe b73e 85c9 6ebf f9cc a7bd c359 43bf
00000340: a0a4 a6bf fb0a 493f 9472 42be c600 1fbe
00000350: 86ba 6dbf e0e4 8fbf 62fa e43e 9b87 f23f
00000360: 3b16 563f cc6b b83c 42cf cd3e e52b 0440
00000370: 5f6a 73bf 0ef1 2f3f e9b1 f63f f112 413f
00000380: 65e8 86bf 58da 723f 1bb0 0f40 c51f 5a3f
00000390: 5f5a dfbd edcf 333e 77aa f93e 3036 353f
000003a0: be20 903f 6f22 4d3f 8973 74bf 4d4a 65be
000003b0: 436f 5a3f 447b fc3d 5953 663f 6327 5fbe
000003c0: e23d 94be c642 b2be 5d4a e0bf b116 403f
000003d0: 5206 12bf 3674 f3bf c81a a13f 0a90 38bf
000003e0: bf3d 793f f712 2abf b4d0 4d3e 14e1 8f3e
000003f0: b94f 513e f55c b13f 14dd 8f3d 8f74 4bbd
0.14033782 0.044922918 1.037887 -0.7075875 -0.5489822 0.09679973 1.0449034 -0.27652463
0.6563103 0.20892963 -1.3126688 -1.7583989 0.57921994 -1.3815392 -0.03540413 -1.0132262
-0.2809056 -1.7102197 -0.114686884 1.3079847 -0.438763 -1.0789659 0.41282952 -1.7766074
-1.1908174 -0.008726795 0.07348311 -0.048047386 0.558406 0.08885395 0.6879534 1.6364616
-0.82525617 0.4334609 0.7073852 0.33205968 -1.7122339 -0.3105263 -0.33101928 1.4404254
-0.66988456 -0.6457987 0.31811583 1.141311 -0.5760429 -0.30319026 -0.65509397 3.341973
-0.81049514 -0.29454467 -1.0317382 0.20644031 -0.3584603 0.3662833 0.71349776 1.0148255
-1.4407885 -0.2314364 -0.3487059 -1.481137 0.2552802 1.2587007 0.17933372 0.11620298
1.9294335 0.65918165 -1.7330422 -1.2715752 -1.8264186 0.16178548 -0.8155227 -0.42007872
1.3167119 -0.53823084 1.1052811 0.007976033 -0.026680019 1.4107971 -1.009342 1.0490663
-0.31447953 -1.1739928 -0.78274083 0.7260605 -0.1895038 -1.4012067 0.0040024323 0.9853389
0.8331401 0.42335618 -1.1680958 -1.5161077 -0.8240251 -0.80875504 -0.8054982 -1.392266
0.19406514 -1.0643419 -0.09714265 0.54476756 -1.2064344 -1.9468864 -0.6355654 0.0715408
0.7705262 0.23046039 1.272153 -0.43646657 -1.4488692 -1.0191168 0.8972169 -0.7163552
0.30237547 0.11316139 -0.9921029 0.4889805 1.1992754 2.2715025 2.2536082 -0.17891432
-0.44054028 -1.3718411 -0.094228365 1.1107932 -0.20309511 -0.08162721 0.75624865 1.8320566
1.852253 -0.1131753 -0.09565978 -0.059432246 -0.13864559 1.209104 0.22087122 0.92628187
0.2128393 -0.43255472 0.43971536 -1.0710783 -1.0613779 2.9383829 0.48239323 -1.1570213
0.67452794 0.6613218 0.64219266 -1.6173161 -1.2542529 -0.90691364 -1.0829297 -1.2035195
-0.47042447 -0.47951996 0.83234495 -0.3972216 -0.18458223 -0.06081607 1.2985324 -0.7540505
0.3814263 -0.7130383 1.4604772 -3.133137 -1.041821 -0.67202246 -0.5384134 3.5663037
-0.13042228 0.2830921 0.39429316 0.37656653 0.6989224 0.503137 -0.41581485 -0.60671806
-0.8366669 0.1868259 -0.8483007 -1.1289514 0.4513684 1.9369088 -1.7330402 1.1763048
0.85200185 -0.017495364 -2.1518447 2.5125804 1.0741593 -0.5389892 0.8884904 2.1599333
-0.17114997 0.4308585 -0.7695806 -0.7213147 -1.3581377 1.2449888 -1.1837997 -1.066676
-1.4376149 0.60874605 -2.112068 -0.16288985 0.35936245 -0.93276244 -0.08193392 -0.7630884
-1.301899 0.7853238 -0.1898902 -0.15527639 -0.9286274 -1.1241722 0.44722277 1.8947634
0.8362767 0.022512339 0.40197188 2.065179 -0.95084184 0.68727195 1.9273044 0.7541953
-1.0539671 0.94864416 2.2451236 0.85204726 -0.10905909 0.17559786 0.48762867 0.7078581
1.1259992 0.80130666 -0.9548879 -0.22391625 0.8532602 0.123281986 0.8997093 -0.21792369
-0.28953463 -0.3481657 -1.7522694 0.75034624 -0.57040894 -1.901984 1.2586298 -0.72094786
0.9735984 -0.6643519 0.20099145 0.28101408 0.20440568 1.3856493 0.07024589 -0.049671706

blocks.0.norm1.weight f4 [64]
00000000: 7c6e 843f 784c 843f 8f4d 823f 512a 8a3f
00000010: ad06 8b3f 0d03 813f ca7b 873f 03a8 883f
00000020: 8a87 853f 5ed3 803f 0a5a 793f e4c6 8f3f
00000030: 47c4 7c3f 24b6 873f 6126 883f 4d5f 843f
00000040: 2459 833f 8a09 883f 385e 7e3f 9217 8a3f
00000050: 6af5 7f3f 5c60 8f3f 2a85 833f 99b9 833f
00000060: d768 7a3f 2368 8d3f 6591 853f 59ce 853f
00000070: 4588 8a3f bf5f 843f 1ad4 8b3f 2cf0 803f
00000080: 84e0 6e3f 16e0 7a3f 6787 903f 7a48 843f
00000090: 1cf0 8a3f db0d 8d3f 71f0 8a3f b68b 823f
000000a0: bf89 7d3f 013f 8c3f 9b3a 883f c799 853f
000000b0: dff1 783f 548e 753f 1f62 823f 27db 8d3f
000000c0: eaf3 7c3f e037 823f aded 8b3f a8b3 883f
000000d0: cb6d 853f b52e 823f 2fb6 823f da20 8f3f
000000e0: 7726 8a3f 3f65 853f e7dd 833f 81c2 8d3f
000000f0: 8c81 883f b1ac 833f 468c 8f3f e4fe 843f
1.0346217 1.0335836 1.0179919 1.0794164 1.0861412 1.0079056 1.0584652 1.0676273
1.0431988 1.0064504 0.97403014 1.1232572 0.98736995 1.060246 1.0636712 1.0341583
1.0261579 1.0627911 0.99362516 1.0788443 0.9998385 1.1201282 1.0275013 1.0291015
0.9781622 1.1047405 1.0434996 1.0453597 1.0822836 1.0341719 1.0924103 1.0073295
0.93311334 0.9799818 1.1291322 1.0334618 1.0854526 1.1019853 1.0854627 1.0198886
0.9903831 1.0956727 1.0642885 1.0437554 0.97244066 0.959203 1.0186194 1.1082505
0.98809683 1.0173302 1.0931908 1.0679827 1.0424131 1.0170504 1.0211848 1.11819
1.0792989 1.0421523 1.0302094 1.1074983 1.0664535 1.0287076 1.1214683 1.0390286

blocks.0.norm1.bias f4 [64]
00000000: 45d0 7b3d a988 71bc 45af c33c 2eb9 d8bd
00000010: c2a5 ad3c ac68 093d e80a 663c 4f20 1e3c
00000020: f15a c1bb 2287 d9bc d892 703c 2045 5bbd
00000030: 4f09 b23b 7ccb 48bd c65a 473d 21a8 6dbd
00000040: 392f 3fbd a17a afbc 2160 853c d229 883d
00000050: 74db 3f3c 3e30 5bbd 26d2 65bc f37d 763c
00000060: a9f4 5fbd 0863 f23c ed80 573d 09e1 e9bc
00000070: 1243 bd3c f58d ad3c 646c d53c 9206 593c
00000080: 3b81 6fbb 9a79 b33d b8f2 8f3d 567d a53c
00000090: f2f4 07bd c86e eb3b 42da 7abb f35c 1bbc
000000a0: 3ca5 fe3b 60f0 febc 3ae7 ba3c 2926 8d3d
000000b0: b2d4 b5bc b318 aebd ec3e 263d b735 e23d
000000c0: 6cee b4ba b21c 4abc 3b4a 233c f941 59bc
000000d0: 95f6 95bb ec2a 7e3a e655 183d 5e08 f53c
000000e0: 273a 65bd 4608 653a d8ec 5bbd 88ca fb3c
000000f0: 38b3 8f3d b909 083d aba7 9139 6312 8b3c
0.06147792 -0.014742055 0.023887286 -0.10582195 0.021197204 0.03354709 0.014040686 0.009651258
-0.0059007336 -0.026553694 0.014683448 -0.05353272 0.0054332386 -0.049022183 0.048670553 -0.05802167
-0.046675894 -0.021420779 0.01628119 0.066486016 0.011710037 -0.053512804 -0.014027154 0.015044677
-0.054676685 0.029588237 0.052613188 -0.028549688 0.02310327 0.021185854 0.026052661 0.013246195
-0.0036545533 0.08763428 0.07028717 0.020201366 -0.033192582 0.007184837 -0.0038277064 -0.00948261
0.0077711623 -0.03112048 0.022815336 0.06892044 -0.022196148 -0.08500805 0.04058735 0.110454015
-0.0013803965 -0.012335943 0.009966428 -0.013260358 -0.004576514 0.0009695727 0.037191294 0.029911216
-0.05596366 0.00087368896 -0.05369267 0.030736223 0.07016605 0.033212397 0.00027781478 0.01697654

blocks.0.attn.in_proj_weight f4 [192, 64]
00000000: cbce bd3a 9935 c7bd d3f0 62bc 2a83 90bd
00000010: a766 2dbe c258 ecbc 22d7 ed3d 2e71 133d
00000020: 52ab dd3d 70bd 79bd 8b6d d3bc fa64 afbb
00000030: 83e9 dc3b 3758 1dbe cc9e ab3d e188 e83d
00000040: 0896 523d 9562 fcbc ea2d 46be a11b 243e
00000050: 151b 34bd a687 92bd d1fc 33bd 44a9 12be
00000060: 7164 d3bd 904d f93c dd48 113d bb72 1abd
00000070: 9da1 c0bd 3785 913d 3370 183e 693b 013e
00000080: becf 3dbd c716 183e ed09 c43d 2d34 9a3c
00000090: a579 d6bb 6e3b 9d3d 7f97 35be 568c 483e
000000a0: 3645 dc3c 0aaa 063d f9b8 ae3d 6cbb eebd
000000b0: fe6c 3d3e a750 27be cadf cc3d 81fc c63d
000000c0: 9a09 183d 3e82 d83c 4911 2a3d 9361 0abe
000000d0: 50bf fe3b 5777 fd3d d40b 583c 781a d9bd
000000e0: b6a8 f1bd 4a95 d8ba a967 e9bd c0bc a33d
000000f0: 3639 28be 209c 9cbd a909 23bc f075 b7bc
00000100: e9ee ae3d d650 253e 75f0 35bd 176c 143b
00000110: 4944 c4bd ed97 9c3d 3c09 b3bd 0b15 f73c
00000120: 986a d83d f306 1e3b ed33 e4bd 0d86 833c
00000130: 9cf7 3a3e a296 27bc db0b c83c 79ef 093e
00000140: 2474 533e f3d2 a6bd 3b06 42be 2758 6c3d
00000150: cddb bc3d 4678 463d 494b 723e 4e8f debd
00000160: 1d64 223e ed19 18be d938 d03d ef70 e9bd
00000170: c401 e53c d083 57bc 33d4 803d cae9 29be
00000180: dbf8 a7bd b8a3 ff3d 3025 4b3b b9bc 3e3e
00000190: c935 fcbd 0882 12be 9b2e 0ebe 3b3c 4a3d
000001a0: 7fa1 cd3c 10e8 86bd 80c9 b83d a973 d73c
000001b0: fac3 e4bd 6b8f 8f3a 3588 08bd d815 f4bc
000001c0: b9e5 db3d 88ce d43b cee2 b9bc 99b7 b7bd
000001d0: 1c73 e1bd a7ac e53c e376 87bc b15c 4ebd
000001e0: 9ece f6bd 503f 41be 2996 1a3e 2c13 a03c
000001f0: efe0 21be b57e d9bd f709 c2bd 1d97 cdbd
00000200: c493 0c3e 4408 93bd 681c e7bd 0c8d fa3d
00000210: c86b 743d 8c05 9dbd 2525 d7bc b5c9 f73d
00000220: 38a6 78be 8040 b537 0f2b 87bb 860b 763d
00000230: 3176 88bd ee08 f4bd 3a0d 183e cccf 0a3e
00000240: cc3f 37be d1f0 1b3e f88c 433e 7733 b8bd
00000250: 6582 1cbc 7643 ea3c 6645 2dbe e540 23bd
00000260: 7447 28bd 508b 96bb 04cc e3bd a79e 00be
00000270: 53dd 043e 7dea 853d 763e 1bbe 3381 8abd
00000280: cd90 ef3d e380 d93b 041e b13d 7b78 0cbe
00000290: 95d9 973d ea9c 13be 2502 34bd 2562 c83d
000002a0: f623 8cbc f54f c2bd a2f4 74bd cb42 04be
000002b0: 5b7f 02be 0a88 db3c 994e 2abd ca16 fdbd
000002c0: ea47 2d3e be92 e6bd b8da 083e 8384 423e
000002d0: ed83 e43a 2215 fe3d cb76 5cbc e280 c8bd
000002e0: bf52 05bd e090 013e f6be 343d b0d4 093e
000002f0: 260c 2f3d 7b90 dabd 6ce6 adbd 7803 34bd
00000300: 72d8 09be 13e1 9d3e a3a9 26be 8eed 97bd
00000310: 7fb0 ad3a dae9 413e e20d 07be bad3 0cbe
00000320: 5569 61bd 69b8 553d e534 003e 4e03 013e
00000330: af2b 1b3e 557a f13d fb68 29be c4ee 203c
00000340: f5ff 8c3d 6677 94bd 177a cb3d ac75 0e3d
00000350: 384c ab3d 862e a5bc 1d55 cc3d ee1e 0ebe
00000360: 246b e9bc a5cd 2e3e dd62 9a3d 7413 203d
00000370: 538c 1a3e c7eb f73b 9116 2a3d 0a0d 82bd
00000380: de24 bebd cb8e a1bd 6fcd f4bd c410 0dbd
00000390: 7312 863c 9fb5 b33c ca97 2fbd 891e ca3d
000003a0: e1dd 0f3e 1c59 99bd f171 ecbd 45e7 abbc
000003b0: e800 033d 73d7 43be f0fa 9dbd abd4 f5bd
000003c0: ae7e a3bd 561e 2ebe cadd b6bd 4921 523b
000003d0: 055e 9dbd e473 583d 5e69 ac3c d03f 623d
000003e0: 2502 013e 40bc d3bd f160 e33d 5278 06be
000003f0: 6508 33be 2881 18be 4b5a 08bd dcc2 213c
0.0014481185 -0.0972702 -0.013851362 -0.070562676 -0.1693369 -0.028850917 0.11613299 0.03599661
0.108236924 -0.060971677 -0.02580907 -0.0053526135 0.006741704 -0.15365683 0.083798975 0.113542326
0.051412612 -0.030808726 -0.19353452 0.16026165 -0.04397114 -0.07154779 -0.043942276 -0.14322382
-0.10321892 0.030432492 0.03546988 -0.03770707 -0.09405825 0.07105487 0.1488655 0.1262032
-0.046340697 0.14852439 0.09572206 0.018823707 -0.006545263 0.07677351 -0.17733572 0.19584784
0.026888471 0.032877006 0.085313745 -0.11656842 0.18498608 -0.1633936 0.10003622 0.0971613
0.03711853 0.026429292 0.04152039 -0.13513784 0.007774271 0.12376278 0.013186414 -0.10600752
-0.11799757 -0.0016523984 -0.11396725 0.079949856 -0.16428074 -0.07646966 -0.009951034 -0.022395104
0.08541662 0.16144118 -0.04441877 0.0022647434 -0.09583337 0.07646165 -0.08741996 0.030161401
0.10567206 0.0024113029 -0.111427166 0.016055131 0.18258518 -0.010228785 0.024419716 0.13470258
0.20649773 -0.08145704 -0.18947689 0.057701256 0.09221611 0.048454545 0.23661532 -0.10867177
0.15858503 -0.1485364 0.10167093 -0.113984935 0.027954943 -0.013153985 0.06290474 -0.1659309
-0.08201762 0.12482399 0.0030997507 0.1862668 -0.12314946 -0.14307415 -0.13884966 0.049373847
0.025101421 -0.06587231 0.09022808 0.026300268 -0.11170192 0.0010952776 -0.033333022 -0.029795572
0.107371755 0.006494347 -0.022691157 -0.08970565 -0.110082835 0.028036429 -0.016536182 -0.050381366
-0.12051128 -0.18871808 0.15096344 0.019540392 -0.15808462 -0.106198706 -0.09474557 -0.10038588
0.13728243 -0.07179311 -0.11284715 0.12233934 0.0596731 -0.076670736 -0.02626283 0.120990194
-0.24282157 2.1606917e-05 -0.004125006 0.060069583 -0.06663168 -0.11915766 0.14848796 0.1355583
-0.1789543 0.15228583 0.19096744 -0.08994191 -0.009552573 0.028596621 -0.16921005 -0.03985681
-0.041083768 -0.004594244 -0.11122897 -0.12560521 0.12975053 0.06538866 -0.15160546 -0.06762924
0.116975404 0.006637679 0.08648303 -0.13717835 0.07414547 -0.14415327 -0.043947358 0.097843446
-0.017106991 -0.09487907 -0.059803613 -0.12916104 -0.12743895 0.026798267 -0.041578863 -0.12357862
0.16921964 -0.112584576 0.13364685 0.18995862 0.0017434336 0.124063745 -0.013456057 -0.097902074
-0.032549616 0.12652922 0.044127427 0.1346004 0.042736195 -0.10672089 -0.08491215 -0.04394862
-0.13461474 0.3083578 -0.16275649 -0.07418357 0.0013251452 0.18936864 -0.1318889 -0.13752642
-0.055032093 0.05217782 0.12520178 0.12598917 0.15153383 0.11790911 -0.16543953 0.009822551
0.068847574 -0.07249336 0.09935396 0.03478019 0.08364147 -0.020163786 0.099771716 -0.13878986
-0.028493471 0.17070635 0.07538388 0.039081052 0.15092592 0.0075659486 0.041525427 -0.06350143
-0.092843756 -0.07888564 -0.11953246 -0.034439817 0.01636622 0.02193719 -0.042869367 0.09869105
0.14049484 -0.074876994 -0.1154517 -0.020984301 0.031983286 -0.19125156 -0.07713878 -0.12003454
-0.079831466 -0.1700376 -0.08929022 0.0032063297 -0.076839484 0.052844897 0.021046337 0.055236638
0.12598474 -0.1033864 0.111024745 -0.13131836 -0.17483671 -0.14893019 -0.033289235 0.009873118

blocks.0.attn.in_proj_bias f4 [192]
00000000: b3d8 e83d 45fb 0cbd bd2d 13bd eb3f b3bd
00000010: 9d0a e53c 76b7 9e3c 555e 1f3c 0a02 dfbc
00000020: 93fd e83d 8c19 28be 9947 31be 0614 10bd
00000030: 1466 db3d 26bb 34be 6bef 813d 6bbc dcbd
00000040: 4ed0 633d a2f8 adbb ccf1 463d 4c50 3f3d
00000050: e60a bc3d 0a9e b6bb 7c47 973d 9de6 28bb
00000060: fd92 0fbd 59c9 de3b e908 7f3d cbdb 493d
00000070: 6f48 b8bd 42e4 15bd 3b8d 3fbd 59d4 cc3c
00000080: 3cfe 5b3d ef35 423d ea50 243d 4568 dfbc
00000090: 05d5 9b3d 71a3 0abd 787a 823d 8f78 623d
000000a0: 7584 843c 4899 0e3c d70b 6a3d 1c48 94bc
000000b0: 07ed 5a3d b31b 16bd 5cf2 c13c 2294 263d
000000c0: 48a1 d03d 8437 43bd 8702 cf3d fc56 323e
000000d0: 4d56 d03d 182f dfbc a7b6 0abe 4f29 9ebd
000000e0: 51e8 14be 3c4d a13c 45e2 8c3c 6940 a83d
000000f0: bfae c53d 1f83 30bc 9122 263e c6cd 76be
00000100: dcd8 553a 5c23 9f3a eddd 3bba c32b 393a
00000110: 9c23 9f3a 6824 f2ba 4acc 9f3b 8c02 b7bb
00000120: 226e f2ba 4521 f2b9 3c85 463b 87dd 9c3a
00000130: 3066 dd3a 5a5d 09b9 4f1a f3ba 471b 04bb
00000140: 47ba 9d3b 31de ac39 0019 633b 396b 1839
00000150: 9f3d 5d3b b151 453b 45ce 073b df55 00ba
00000160: 61ef caba 7f0b 353a 96b5 c5b9 77bf 053b
00000170: bb7f debb 5846 b73a ba11 573b 2f8e 14bb
00000180: e019 943b 39ac 1c3a 50d6 393b 72f7 edb8
00000190: edfa ad3a 78a7 a33a 766d c73a 538d 153b
000001a0: 013d d1b9 d2fb 8139 c279 be38 1b7a 8cbb
000001b0: c4dc cd3a 3066 59ba 89a8 f039 1f4f f0b9
000001c0: 13ef d1bb ddf7 293b c54b a1bb 604e 06bb
000001d0: 6488 00bb 3cc8 85ba b2f7 133b e009 723b
000001e0: 4489 ddb9 afb4 c5ba 9f5a 1d3a f23f 9b3a
000001f0: 571c a8bb 198b a33a abfc 27bc bd83 f83b
00000200: 2e32 b43b 7b3e ad3c ed7e c9bc 8719 f03b
00000210: a519 c9bc d694 893c 682f 083d b970 b53c
00000220: 4e65 443c 9662 9ab9 f071 3abc 038f ddbb
00000230: f5c5 30bc 8158 cd3c 5840 cfbc ea88 893c
00000240: 9543 6bbc b89d d1bc 47b2 3abc b567 163c
00000250: 9e29 1abd ad2a a73c 0a7b 28bd 47ce 413c
00000260: 34cb 16bd db46 853c 2dec c0bc 84d6 79bc
00000270: 68f9 9f3b 158d 74ba eee0 583a ebe7 1d3c
00000280: 614f 3ebc a646 e9bc 3f33 17bd 0bd1 9abc
00000290: a91c 6fbd cad7 9c3c 5c42 8f3c bd33 1b3b
000002a0: 3f63 31bd 224a 583c d2d8 0ebc 1ee7 32bd
000002b0: 24db 033c d84a 803c 5c9e 0d3d a6c8 edbc
000002c0: 7da7 a7bc b5b4 c83c d9f6 4f3c 4eb5 323b
000002d0: fcb5 803c 6eaf 303d 2e2d 823b c3ca b1bc
000002e0: f49a 0abd 2d1f 16bc b614 22bd a6bf 81bb
000002f0: 94c4 05bd 4ee5 04bc 1513 bb3b 7f50 dcbc
0.11369457 -0.034419317 -0.03593229 -0.08752426 0.027959162 0.01937459 0.00972708 -0.027222652
0.113764904 -0.16415995 -0.17312469 -0.035175346 0.10712829 -0.17649516 0.063444935 -0.107781254
0.055618577 -0.0053091804 0.04857044 0.046707436 0.09181766 -0.005573039 0.073866814 -0.0025772222
-0.03505229 0.006798905 0.062264357 0.049281877 -0.089981906 -0.036594637 -0.046765547 0.025003599
0.053709254 0.047414716 0.04011623 -0.0272714 0.076089896 -0.033847276 0.06371015 0.055290755
0.016176442 0.008703537 0.057140198 -0.01810079 0.053448703 -0.03664751 0.023675136 0.040668614
0.10187012 -0.047660366 0.10107904 0.17415994 0.101727106 -0.027244136 -0.13546239 -0.07722723
-0.14541747 0.019690149 0.017197737 0.0821541 0.09652471 -0.010773449 0.16224124 -0.24101934
0.000815762 0.0012141275 -0.00071665534 0.0007063711 0.001214135 -0.0018473985 0.004876648 -0.0055850204
-0.0018495957 -0.00046182625 0.0030291816 0.0011967876 0.0016891416 -0.00013100114 -0.0018547269 -0.002015786
0.0048134658 0.00032971942 0.0034652352 0.00014535793 0.0033758653 0.0030108506 0.0020722311 -0.0004895608
-0.0015482717 0.0006906315 -0.0003771006 0.0020408311 -0.006790129 0.0013982756 0.0032816962 -0.0022667756
0.004519686 0.0005976591 0.00283565 -0.00011347131 0.0013273634 0.0012485823 0.0015215117 0.0022819832
-0.00039909038 0.00024792418 9.082585e-05 -0.004287017 0.0015706052 -0.000829312 0.00045901936 -0.00045835317
-0.0064066737 0.0025935092 -0.0049223625 -0.0020493492 -0.0019612545 -0.0010206769 0.0022578058 0.0036932155
-0.00042254676 -0.0015083755 0.00060025783 0.0011844619 -0.0051303315 0.0012477367 -0.010253112 0.007584064
0.005499146 0.021147957 -0.024596656 0.007327262 -0.024548361 0.016794603 0.033248335 0.022148477
0.011987044 -0.0002944662 -0.011379704 -0.006761433 -0.010789384 0.025066616 -0.025299236 0.016788919
-0.0143593745 -0.025587901 -0.011395044 0.009179999 -0.037637345 0.020406092 -0.041132964 0.0118289655
-0.036814883 0.016269138 -0.023550117 -0.015248898 0.0048820265 -0.0009328884 0.0008273263 0.009637813
-0.011615605 -0.02847607 -0.036914106 -0.018898508 -0.05837694 0.019145865 0.017487697 0.0023681961
-0.04330754 0.013201268 -0.008718686 -0.04367744 0.008047853 0.015660688 0.03457485 -0.02902634
-0.020465607 0.02450023 0.01269313 0.002726871 0.015711777 0.043136053 0.003972671 -0.02170313
-0.03383918 -0.009162706 -0.039570533 -0.003959614 -0.032658175 -0.008111311 0.005709062 -0.026893852

blocks.0.attn.out_proj.weight f4 [64, 64]
00000000: 3d3e 17be ed6c bbbb 42c8 763e 647a 84bd
00000010: 50e9 ce3d ade4 1bbd 1971 22bd 8c7e 1cbe
00000020: 8dd1 213d 2040 193e 8713 a93d be40 20bd
00000030: d7af 15be 1ee6 9bbb 39c4 2bbd 7b76 c8bd
00000040: a948 403e 7c88 27be 67ca ffbc b0c3 02be
00000050: a219 0fbe f565 51bd 31a9 373e 62b8 cabd
00000060: 60b4 22bd 6ddd 113e b51a a93d 4854 683e
00000070: df9e 513e 0cd7 35bd ed24 5e3e 9c0d cdbb
00000080: e7e9 0e3b 34b9 89bd 3ddf 6f3d a24c ee3d
00000090: ef68 753d c0de 823e 548e 213e f5b1 6ebe
000000a0: bfd4 593e 8e1d e93d fb36 60be 6ec2 3c3d
000000b0: 4a95 a5bc aa41 20be e24b eebd 424c cd3d
000000c0: 4c3e 25be ae53 1c3e 5dde 0a3e b673 6dbe
000000d0: d0c4 143d fd8c 363e 208f 25be 530b 103e
000000e0: 5471 f7bd 84eb 273e 4563 3cbe d73a 9e3d
000000f0: 37c4 cdbc 44d1 f23d 608c 38be f91b 913b
00000100: 1785 2a3d 6013 29be 788e b5ba 432a 983c
00000110: bf2f 46be d3c6 cbbd 3a19 0a3e 02d9 da38
00000120: e3cd a33d 9164 13be 5495 50be e59a f7bd
00000130: b9d0 50be e455 c1bc c739 323e 6f41 a53d
00000140: 229a 523e 1e54 ebbd c832 4dbb 776e 6fbe
00000150: 8f4b 43be 403d 3fbe 5fca a8bd b3a6 40be
00000160: 5eca b33d e653 6b3c 9496 15be 7986 39be
00000170: 910f 213e 7819 243e edcd b43c 1ba7 13be
00000180: a517 853d f5a5 cfbd 5c23 813e 498f 513d
00000190: a391 423c ee3b acbc 8053 003e 3477 653e
000001a0: 0612 54bd fe78 c0bd afba 51bd 4339 813d
000001b0: accc e23d c7b2 683e 268f 4a3d 0c84 69be
000001c0: db9f ebbd f6b3 70bd 1312 59be 905e 1ebe
000001d0: 01ff 21be d0bb 543e 3e3a 983d 5e19 183e
000001e0: 37a7 12bd c3a1 1ebe ab3d 223b 18db 62bd
000001f0: 883d 6a3e b926 1a3d 1826 6bbe ac67 233e
00000200: 82ca 16be 37e3 3c3e 9020 8a3d bb19 c6bd
00000210: 4f3a e3bd 4d62 c8bd 0796 ef3c 6153 483d
00000220: 2d29 fe3d 798e 873d eae6 71bd 748d 09be
00000230: c2f6 22bd 6680 dc3d 63ba be3d 0128 51bc
00000240: aea5 6ebe 0cfa a73d 7d33 2ebc 864a 46be
00000250: 6635 f4bd e998 983e 9413 96bc 53d0 3d3c
00000260: d1b6 cd3d 6af6 643e 3689 94bd 0b6c 493d
00000270: f627 1dbe 3ea8 1abd 9290 5f3e 5bb7 b7bd
00000280: ad92 cabd f4d5 153d ad37 2abd 9608 c93d
00000290: ea5c 9bbc c8d6 aabd 0a88 453e 2c53 a4be
000002a0: cebb f5bd fa70 0e3e 6b80 babd 6acb f8bd
000002b0: 6755 4a3e 110a 75bd 3125 49be b2d2 89bd
000002c0: f4ec 0d3e e1e5 273e 0f19 263d 1718 23bd
000002d0: 3ff3 8abe 7c71 203e 3c0e 713e b1fe 293d
000002e0: 6225 4cbe 0b41 f73d 083f 3ebe 543a 32be
000002f0: 83b9 213e ebc5 d0bd e07c 47be 4f6e e5bd
00000300: 53f3 85bd a271 15be cc26 153e 0ede a33d
00000310: 54c5 0bbc b393 893a 3d7d cabc 2bf9 2ebe
00000320: 2626 80bd 57fb 32bb 32ff 94ba 86f3 27bd
00000330: 95f7 3ebd 0739 8c3d bc8e 4f3e a078 1d3d
00000340: cc0b 763e 0d3b 4f3d 4d2d c13c 4e3c 27bb
00000350: 170f a93d 9576 7fbe 9bd3 c8bd 2e15 dc3c
00000360: 0b51 52be 5475 60bd 968a cd3b c932 6ebe
00000370: b41f 1b3d 7788 aebd 0b1e 533e d371 5a3e
00000380: 6a5f 2bbe fe3c 09bd fe12 dc3d 143c 4b3d
00000390: f4f9 423e c0dc 4a3e 0ccb eabd 6126 233e
000003a0: 13f0 ecbd 8ddc ee3d b8d4 393e 5c4d 57bd
000003b0: b949 823e eb10 3bbe b58e d9bd d579 15be
000003c0: 854e d13d c0e0 273e 1631 e73d 4831 10be
000003d0: 1079 58be 9ef8 dcbd 04df 343e 15ad 80be
000003e0: 0847 e63b 11df 193e 3318 2cbe f637 c63d
000003f0: c472 ccbd c060 16be 3d14 803d 7677 973d
-0.14769836 -0.005719772 0.2409983 -0.06468657 0.101030946 -0.03805988 -0.03965864 -0.15282649
0.039506484 0.14965868 0.08255678 -0.039124243 -0.14617859 -0.0047576567 -0.04193518 -0.09788223
0.18777718 -0.16360658 -0.031224443 -0.12769961 -0.13974622 -0.051122624 0.17935635 -0.098984495
-0.0397228 0.14244623 0.08257047 0.22688401 0.20470761 -0.044394538 0.21693774 -0.006257726
0.0021806897 -0.06724778 0.058562506 0.1163571 0.059914526 0.2556057 0.1577695 -0.23310073
0.21272562 0.1138259 -0.21895973 0.04608386 -0.020212788 -0.15650049 -0.11635567 0.10024311
-0.16137046 0.15266296 0.13561387 -0.23188671 0.036320508 0.1782722 -0.16167879 0.1406682
-0.120821625 0.16398436 -0.18397243 0.077260666 -0.025117977 0.118563205 -0.18022299 0.0044283834
0.04163083 -0.16511297 -0.0013851663 0.01857484 -0.19354151 -0.09950032 0.13486186 0.00010435471
0.07998254 -0.14393832 -0.20369464 -0.12090091 -0.20392121 -0.023600526 0.17404853 0.08069121
0.2056661 -0.114906535 -0.0031310786 -0.23381983 -0.19071792 -0.18675709 -0.08241724 -0.1881359
0.08778833 0.014363265 -0.14608222 -0.18117703 0.15728594 0.1602534 0.02207085 -0.14419214
0.064986505 -0.10139076 0.2522229 0.051162038 0.011875543 -0.02102467 0.12531853 0.22408754
-0.051775 -0.093980774 -0.051203426 0.0630975 0.11074194 0.22724448 0.049452923 -0.22804278
-0.115050994 -0.058765374 -0.21198301 -0.1546576 -0.15819933 0.2077477 0.07432984 0.14853427
-0.035804 -0.15491395 0.0024755995 -0.055384725 0.22875035 0.037634585 -0.2296375 0.15957516
-0.14725688 0.1844605 0.06744492 -0.096728764 -0.11095106 -0.097843744 0.029246343 0.04890764
0.124101974 0.066189714 -0.059058107 -0.13432866 -0.039786108 0.107666776 0.09312894 -0.012765885
-0.2330539 0.082019895 -0.010632393 -0.19364366 -0.119242474 0.2980416 -0.018319882 0.011585313
0.10044635 0.22359625 -0.072527334 0.049175303 -0.15347275 -0.037758105 0.21832493 -0.08970519
-0.098912574 0.036580995 -0.041557003 0.09816091 -0.018965203 -0.083417475 0.19290176 -0.32094705
-0.119987115 0.13910285 -0.09106525 -0.12148173 0.19759141 -0.059824053 -0.19643094 -0.0672964
0.13859922 0.16396286 0.04055124 -0.039817896 -0.27138707 0.15668291 0.23540586 0.04150266
-0.19936135 0.12072953 -0.18578732 -0.17405063 0.15793423 -0.10194 -0.1948123 -0.1120268
-0.06540551 -0.14594129 0.14565581 0.08001338 -0.008530933 0.0010496288 -0.024717921 -0.17087238
-0.06257276 -0.0027310455 -0.0011367558 -0.041003726 -0.04662283 0.068468146 0.20269293 0.038445115
0.24027938 0.050593425 0.023581171 -0.0025518122 0.08254831 -0.24947579 -0.098059855 0.026865568
-0.20538728 -0.054799393 0.0062726242 -0.2326156 0.03787203 -0.08522122 0.20616929 0.21332483
-0.16735616 -0.033505432 0.1074581 0.04961784 0.19040662 0.19810772 -0.11464509 0.15932609
-0.11569228 0.116631605 0.18147552 -0.05256401 0.2544687 -0.18268172 -0.10622922 -0.14597256
0.102200545 0.16394329 0.11288659 -0.140813 -0.21139932 -0.107896075 0.17663199 -0.2513205
0.0070275106 0.150265 -0.16806106 0.096786425 -0.09982827 -0.14685345 0.0625386 0.07395832

blocks.0.attn.out_proj.bias f4 [64]
00000000: bbe1 c7bc 3dd2 f5bc 959c 6b3b c542 133d
00000010: c97d b8bc 0a05 c63a b7a0 583d 4713 d3ba
00000020: c9f9 a73d 4153 d43c 3b53 033c 3fad a6bb
00000030: 2bf5 16bc 4296 ecbb fe88 aabc 3a07 2d3c
00000040: 1e9b cf3c 08f0 c03c 937d 773d f953 45bb
00000050: ff7e cc3b 0d25 c03b 7d48 56bc a859 b53c
00000060: f54b e0ba bb41 473d 683e 24bd baed 0d3c
00000070: 2131 413c 1911 403c 7518 b7bc 132e e1bb
00000080: 6745 52bd 99a3 03bd 349b b7bc 7daa 85bd
00000090: 6595 ac3d 7ab3 93ba 00e8 8ebd c11e 83bb
000000a0: 5a8a 843c 7f83 453d f046 f3bc f65d 833c
000000b0: 6758 213d 44d2 f13a 1888 efbb 6217 8abc
000000c0: b456 3c3d 9040 d13c 7bfc 83bc c507 a33c
000000d0: c284 0ebd 04e5 bebc e02a f7bc 9ac7 9b39
000000e0: a4db efbc 404c e7bb a2c1 e63b 15c0 a1bc
000000f0: c5e6 963c 3e59 d6bc 9adc afbc 29a3 93bc
-0.024399629 -0.030007476 0.0035951484 0.03595235 -0.022520917 0.0015107703 0.052887645 -0.0016103768
0.082019396 0.025918605 0.008015449 -0.0050865705 -0.009213726 -0.0072200606 -0.020817276 0.010560805
0.02534252 0.023551956 0.06042249 -0.0030109866 0.006240725 0.005863792 -0.013078806 0.022137478
-0.0017112481 0.04864667 -0.040098578 0.008662635 0.011791498 0.011722826 -0.02235053 -0.0068719476
-0.05133572 -0.03213844 -0.022412874 -0.06526659 0.08426932 -0.0011268698 -0.06977844 -0.004001469
0.016179252 0.048221108 -0.029696912 0.016036015 0.039390948 0.0018449505 -0.007309925 -0.016856853
0.045981124 0.025543481 -0.016111603 0.019901166 -0.034794576 -0.023302563 -0.030171812 0.0002971262
-0.029279537 -0.0070586503 0.007042126 -0.019744912 0.018420586 -0.0261656 -0.021467496 -0.018022137

blocks.0.norm2.weight f4 [64]
00000000: b0cf 853f 0a32 773f ec44 8f3f 7c12 713f
00000010: f487 863f 79a2 823f 7d0d 7f3f 86b6 883f
00000020: 0dc5 873f 55d3 883f 299a 793f 8528 693f
00000030: 72e9 823f a662 833f 94f2 803f 432b 873f
00000040: c243 863f c481 833f e17d 823f 3bce 803f
00000050: 5c15 823f a382 803f 7481 823f 9016 753f
00000060: 7c3e 813f 1bec 833f 539b 813f d34d 8d3f
00000070: f498 7a3f 6623 7f3f 0311 7f3f 2506 7c3f
00000080: d5e6 863f 9790 6f3f 46e8 833f b518 843f
00000090: 4853 7a3f d1db 813f 42bd 863f 8ddb 8c3f
000000a0: a21d 833f 6e82 873f eb07 633f b94f 753f
000000b0: 8d61 813f 5128 813f c755 7c3f c43a 7a3f
000000c0: 9a42 783f 5179 863f cb7a 853f f407 853f
000000d0: 12dc 793f 636a 863f a12d 8f3f 2278 883f
000000e0: 3f62 7a3f d83c 723f 3c96 6d3f 76b5 783f
000000f0: 1fb4 7b3f 91c1 7d3f bbff 8b3f e5ff 733f
1.0454006 0.9656073 1.1192908 0.9416883 1.051024 1.0205833 0.99629956 1.0680702
1.060701 1.0689493 0.97500855 0.9107745 1.0227492 1.026448 1.0074029 1.0560077
1.0489428 1.0273976 1.0194665 1.0062937 1.0162768 1.0039867 1.0195756 0.9573755
1.0097194 1.0306429 1.0125526 1.1039375 0.9788964 0.9966339 0.9963533 0.98446876
1.0539194 0.9358 1.0305259 1.032004 0.9778333 1.0145208 1.0526507 1.1004502
1.0243418 1.0586679 0.88683957 0.9582477 1.0107895 1.0090429 0.98568386 0.9774592
0.96976626 1.0505773 1.0428098 1.0393052 0.97601426 1.0501217 1.11858 1.0661662
0.9780616 0.9462409 0.92807364 0.9715189 0.9832172 0.99123484 1.0937418 0.9531234

blocks.0.norm2.bias f4 [64]
00000000: abaf 863b 45d5 24bd 0dc3 0b3d f2b4 e6bb
00000010: 7952 14be cb2b 0f3d 0697 813d 752f 12bc
00000020: 8814 123e d068 2d3d 744e 29bd 642e a2bd
00000030: a5ce d03b 3c5a fabc 1cff c63c 3d3c fcbb
00000040: b7c6 5eba 4157 56bd 01d5 c83d c975 e6bc
00000050: 19ff cfbc 5e6e abbb 2333 bebc a9c2 3c3c
00000060: cf88 cbbc 1dec 4e3d 5a3c dcbc 4865 a33c
00000070: f310 aa3c b5a4 a33d d019 8a3c 9299 60bd
00000080: bb9f 08be 76b6 813c 5fa2 84bd f70f 39be
00000090: c1c3 ce3d cbf1 3d3d 874c e1bd e0d0 363d
000000a0: afc5 063b 7291 a13c b020 f7bc 4fbb 2b3c
000000b0: 3829 aa3d 8560 803d 8b31 eb3a e115 ed3c
000000c0: 6fa6 b23c e3ef 9c3d 1e06 20bd b31e 9e3c
000000d0: a7fe 0fbd c73d 1cbd 37c5 90bd 6d7a 953b
000000e0: 8d25 abbc acbf 2ebb 07f0 513d 3ff2 88bb
000000f0: ad18 58ba 3805 13bd 30dc 73bd 7f10 d7bc
0.0041102967 -0.040242452 0.03412156 -0.0070406133 -0.14484586 0.034953874 0.063276336 -0.008922447
0.14265645 0.042336285 -0.041334584 -0.079190046 0.00637229 -0.030560605 0.024291568 -0.0076976107
-0.0008498239 -0.052329306 0.09806252 -0.028132336 -0.025390195 -0.0052316627 -0.023217743 0.01152102
-0.024845509 0.050518144 -0.026884247 0.019945756 0.020760035 0.079904 0.016858011 -0.054833956
-0.13342182 0.015834074 -0.06476282 -0.18072496 0.10095931 0.04637317 -0.110009246 0.044632792
0.0020564606 0.019722674 -0.030166954 0.01048167 0.08308643 0.0626841 0.0017943842 0.028941097
0.021807877 0.07662942 -0.039068334 0.019301748 -0.035154965 -0.038144853 -0.07068866 0.0045617134
-0.020891929 -0.0026664538 0.0512543 -0.0041792686 -0.0008243423 -0.03589365 -0.05953616 -0.026252983

blocks.0.ffn.0.weight f4 [128, 64]
00000000: e2aa 8bbd d2f6 f0bb 39bf 74be 0f72 dabd
00000010: 0e1d e53c 6bc3 febd 390a 02be 272f 883d
00000020: 2154 4fbd 7409 28be ecc3 2f3e e5e6 c13d
00000030: 67a1 1dbe c866 d4bd efa4 053e d328 ef3c
00000040: de59 483e 33e2 813d 77dc 38bc eebd 4b3d
00000050: 51a6 90bd 7a59 ebbd 0c99 2f3e 88b7 c63c
00000060: e07e 18be 57c5 e23d 2850 aebd f186 67be
00000070: 27bd 5abd bfc4 393e e2b8 79be b68f 0b3b
00000080: 8ef3 a1bc 039d b13c 484c ff3d f26a 5fbe
00000090: 77e1 f3bd 50e7 273e 0214 ccbd f499 a03d
000000a0: 7c50 933e 8b78 25bd c9f7 173e 8094 9d3d
000000b0: 7078 293c d25e 00be 4a87 dabc 2e5c 3abe
000000c0: dbc4 e3bc 7a14 05be 8447 5abe 55b4 b23d
000000d0: 0afd 26be 3414 673e 706b d4bc 0627 28bd
000000e0: e9b6 833c 2248 dc3d ea0a bf3d 910d 283d
000000f0: 23dc bdbd 7875 3ebe 5057 023d 44d2 223e
00000100: a51c 08be daa9 943d 0c97 8bbe 7619 4ebd
00000110: 6876 00be e6f3 683c ee44 883d 4325 02bc
00000120: 3f08 463d d9ab 79bd 95bf c4bd a844 2ebe
00000130: 65cf 183d cc81 763e 39a3 e5bd 3743 e0bc
00000140: 5584 e1bc db63 e53d d5cc 043e 540c b13d
00000150: 802b f63b 28d8 a7bd e467 373c db39 edbc
00000160: 0cb9 d73d 7978 ecbd 1f05 d5bd 3c38 97bd
00000170: fd8d d93c 6463 06bc 3380 e63d 8045 38be
00000180: fc64 993d 925b 0cbd 9f78 22be 7d67 2fbd
00000190: 9f4c c9bd b679 4dbe 99ae 7cbe 7970 aebd
000001a0: e756 31bd cc80 f23d 2024 73bb 21ee f0bd
000001b0: 3dd2 d9bd c6c1 d33d cc83 563e c8b1 213d
000001c0: cf39 d5bd 3dea 13bd 0ae8 6ebc 7c78 423e
000001d0: f332 4a3b bdc2 a1bc 1a09 143d 96f8 3ebd
000001e0: 9c84 333e cf5f 593d 6f9e abbd b0c2 c73d
000001f0: b1e8 1fbe a741 c53d 2f65 39bb 8e83 29be
00000200: b193 0dbe acb5 353e cdf7 c53c ef75 74bd
00000210: c811 73bd ef0c eabb 9dcb ef3c c873 60be
00000220: e10e ef3d f239 d1b9 c625 26be ecb7 ae3d
00000230: 869c debd 0343 e1bb 8c70 443d c722 18be
00000240: d658 803d dc4a 79bd ee76 89bd 73f7 a0bc
00000250: 4447 16bd 1fb2 92bd ceb0 4d3d 73b9 e6bd
00000260: f45c 28be 8766 f8bd d6c6 003e e04b 03bd
00000270: 8e84 e33d dda8 0dbe 3bd6 133e a222 7d3d
00000280: 2163 a23d 178d 2b3d 6229 10bd 0df1 be3d
00000290: a726 2cbe f7a1 2bbe 639e cd3d 2da1 a4bd
000002a0: b921 223e 2466 d3bd 28db 213e a0c9 4ebe
000002b0: 2693 4c3e ea89 053e 341d b93c 7e89 06be
000002c0: bcd0 94bb daed f53d 769a 3bbd b171 6f3d
000002d0: d99f 243e 3e42 31bd 1d61 703d 5f0d d73d
000002e0: 3133 9cbd 38ba 213e 3fef babd c45c c03c
000002f0: de5f 13bd 8205 9abd 6804 9f3b 6d98 fbbd
00000300: 9a1d bbbd 2bde c2bc 78fc a1bc 47ad ffbd
00000310: a400 323e 18ca 07be 878d e3bd c314 7dbe
00000320: 8f52 39be 5c85 29bd 7254 1b3e 27fc dcbc
00000330: 980f 10be d876 383d c675 66be a6e8 973e
00000340: b3e8 203e 56dd d63d 3467 18be 788a f5bd
00000350: 70f6 21bd a4f5 b33d 70b1 52be 2527 823d
00000360: f019 3cbe 3552 32be 35b9 1cbe 3166 9f3d
00000370: 7316 f13d c75f aabd c874 82bd e047 d6bc
00000380: 2275 a9bd 3409 953c 645d d3bd dd98 9e3b
00000390: 41d0 01be 50b1 fbbc 2ca6 2e3d 047f 4dbe
000003a0: a03d c5bc 9341 123e 874a 31bc e98f c43d
000003b0: 7f76 ca3c 447e 643d a1bb cbbb aa78 90bd
000003c0: 691d 933c 31cc a4bd 2aca bdbd e707 ef3d
000003d0: 6da2 1a3e 1c8c 8ebd f8bf 4c3e a307 3dbc
000003e0: 997b 303e 73ab f0bc a9c0 5b3d a2ad e73d
000003f0: 00c3 e7bc 098f 543d 6775 3c3e 5267 7dbb
-0.06819703 -0.007353642 -0.2390107 -0.10666286 0.027967956 -0.12439617 -0.12699212 0.066496186
-0.05061734 -0.16409856 0.17164582 0.09467868 -0.15393601 -0.103711665 0.13051198 0.029194271
0.19565532 0.06341972 -0.011283032 0.049741678 -0.07062972 -0.11491676 0.17148226 0.024257436
-0.14892149 0.11072796 -0.08511382 -0.2261007 -0.053403046 0.18141459 -0.24386933 0.0021295375
-0.019769456 0.021681314 0.12465721 -0.2181814 -0.119082384 0.16396832 -0.09964754 0.07841864
0.28772342 -0.04039816 0.14840616 0.0769434 0.010343656 -0.12536171 -0.026675839 -0.18199226
-0.027803829 -0.12996092 -0.21316344 0.08725802 -0.16307464 0.225663 -0.025930136 -0.04105284
0.01607843 0.10755946 0.093282536 0.041028563 -0.09270503 -0.18599498 0.03182155 0.15900522
-0.13292177 0.07258959 -0.27263677 -0.05031725 -0.12545168 0.014218306 0.06653772 -0.007943454
0.048347708 -0.060954902 -0.09606854 -0.17018378 0.03730716 0.24072951 -0.11212773 -0.0273758
-0.027528921 0.112006865 0.12968762 0.086449295 0.00751251 -0.081955254 0.011194203 -0.028958252
0.10533342 -0.11546416 -0.104013674 -0.07383773 0.026556963 -0.0082024075 0.11254921 -0.17995262
0.07489964 -0.034267016 -0.15866326 -0.042823303 -0.098290674 -0.2006596 -0.24675979 -0.08517546
-0.043295767 0.11840972 -0.003710039 -0.117641695 -0.10635803 0.10339694 0.20948714 0.039476186
-0.10411417 -0.03611206 -0.01458169 0.18991274 0.0030853122 -0.019746179 0.036141492 -0.04662379
0.17531055 0.053069886 -0.08379828 0.097539306 -0.15616108 0.09631663 -0.002828907 -0.1655409
-0.13825871 0.17745084 0.024166012 -0.059682783 -0.05934313 -0.007142655 0.029271895 -0.21919167
0.1167276 -0.0003990676 -0.16225347 0.08531174 -0.10869698 -0.0068744435 0.047958896 -0.14857017
0.06266944 -0.060862407 -0.06712137 -0.019649243 -0.036689058 -0.0716288 0.050217442 -0.112658404
-0.16441709 -0.121289305 0.1257585 -0.032054782 0.11109267 -0.13833947 0.14437191 0.061800607
0.079290636 0.0418826 -0.035195716 0.093233205 -0.1681162 -0.16761003 0.100399755 -0.08038554
0.15833177 -0.10322216 0.15806258 -0.20194101 0.19978008 0.13040891 0.022596933 -0.13138387
-0.0045414846 0.12008257 -0.045801602 0.058458034 0.16076602 -0.043276064 0.058686364 0.10500597
-0.076269515 0.15793693 -0.09127664 0.023481734 -0.035980098 -0.07520582 0.00485282 -0.12284932
-0.091365054 -0.023787579 -0.019773707 -0.12484222 0.17383057 -0.13260686 -0.111109786 -0.24714951
-0.180979 -0.041386947 0.15168932 -0.026975704 -0.14068449 0.045035213 -0.22505865 0.29669684
0.15713768 0.10491435 -0.14883119 -0.119893014 -0.03954166 0.087870866 -0.205755 0.063551225
-0.1836927 -0.17414172 -0.15305026 0.07783163 0.1177186 -0.08319049 -0.063699305 -0.02615732
-0.082742944 0.018192865 -0.10320547 0.00484 -0.12677099 -0.030724198 0.042638943 -0.20067984
-0.024077237 0.14282827 -0.010820991 0.09597761 0.024714706 0.05578448 -0.0062174355 -0.07054265
0.01795836 -0.08046759 -0.09267075 0.11671429 0.15101023 -0.069603175 0.19995105 -0.011537465
0.17234649 -0.029378628 0.053650532 0.11312415 -0.028291225 0.05189422 0.1840416 -0.003866632
