phase3/outputs/transformer.pt (torch, 317087 bytes, 35 tensors)

cls_token f4 [1, 1, 64]
0	0xbc1fe950	-0.009760216
1	0x3b9c057d	0.0047613964
2	0xbc311f74	-0.010810722
3	0x3ca0d8b9	0.019634591
4	0xbcc4e537	-0.02403508
5	0x3c026c74	0.007960428
6	0x3d033fa9	0.032043133
7	0xbb0b450b	-0.002125087
8	0xbc9b4dd2	-0.018958006
9	0xbcbeb239	-0.023278343
10	0xbbd454f3	-0.0064798533
11	0x3bda5830	0.006663345
12	0xbaed68f4	-0.0018112944
13	0xbd05dcd5	-0.032681305
14	0xbc2a930a	-0.010411033
15	0xbc3468c8	-0.01101131
16	0xbc92360d	-0.017848039
17	0xbce13b5c	-0.027494125
18	0xbb9406e9	-0.0045174253
19	0xbd22f213	-0.03978164
20	0xbbe1788c	-0.0068808254
21	0xb88bcf36	-6.6666325e-05
22	0x3c8e4114	0.017365016
23	0xbc2bd2bf	-0.0104872575
24	0xbc89f4ac	-0.016840301
25	0xbb0e2341	-0.0021688493
26	0x3c9bf1dd	0.019036228
27	0x3d0e5c03	0.034755718
28	0x3b8f4e94	0.004373381
29	0x3c642482	0.01392472
30	0x3c8e1acb	0.01734676
31	0xbba0fce0	-0.0049129575
32	0x3b8447d7	0.0040368843
33	0xbcdd9c0b	-0.027051946
34	0x3bdb64d4	0.0066953693
35	0x3cdd6264	0.027024455
36	0xbcd5dfbe	-0.026107665
37	0x3bedfab8	0.007262554
38	0xbbff7d88	-0.007796947
39	0xbbf8cd68	-0.0075928457
40	0xbbada4a3	-0.0052991672
41	0xbca6bcec	-0.020353757
42	0xbc0d009c	-0.008606102
43	0x3cd65b9f	0.026166735
44	0xbbc50ab2	-0.006013238
45	0xbd06371c	-0.0327674
46	0x3c90f16f	0.01769325
47	0x3c92364e	0.01784816
48	0x36cf4bcc	6.1779047e-06
49	0x3c10f8d2	0.008848386
50	0x3da7d551	0.08194984
51	0x3cbc60c1	0.022995355
52	0x3d30ba46	0.043146394
53	0xbcccaa98	-0.02498369
54	0x3d207d0a	0.039181747
55	0x3bd56564	0.006512331
56	0xbc3aac4f	-0.011393621
57	0xbabd2886	-0.0014431633
58	0x3c43a63c	0.011941489
59	0xbbb65573	-0.0055643856
60	0x3ccbb279	0.024865376
61	0xbd06c53c	-0.03290294
62	0xbd00a03e	-0.03140282
63	0x3cd571ae	0.026055183

input_proj.0.weight f4 [64, 39]
0	0x3e018b7d	0.12650867
1	0x3e563e15	0.2092212
2	0xbd9ef0d2	-0.077607766
3	0xbd67eb32	-0.056620784
4	0x3e12ca3e	0.14334962
5	0x3db5c9a9	0.08876354
6	0x3e2256b5	0.15853389
7	0xbca029b2	-0.019551132
8	0xbd58b7b3	-0.052909564
9	0x3e32b876	0.17453179
10	0xbd055038	-0.032547206
11	0xbc58560e	-0.013204111
12	0xbcceaa58	-0.02522771
13	0x3dedb8da	0.11607523
14	0x3e522845	0.20523174
15	0xbde86283	-0.113469146
16	0x3e29d588	0.16585362
17	0x3dcba725	0.0994399
18	0x3e22e9e1	0.1590953
19	0xbe171d41	-0.14757253
20	0xbe0f22a5	-0.1397806
21	0x3df34e98	0.11880225
22	0x3e685f6f	0.22692655
23	0xbe6901db	-0.22754614
24	0xbdf5c78a	-0.1200095
25	0x3c168957	0.009188018
26	0xbe63f66c	-0.22261971
27	0x3e15ae00	0.14617157
28	0xbbcd6c0f	-0.006268985
29	0x3e3aa720	0.18227816
30	0xbe35c559	-0.17751063
31	0x3e2260b6	0.15857205
32	0xbda42978	-0.08015722
33	0xbd451238	-0.048113078
34	0xbdaec4d6	-0.08533637
35	0x3d8be338	0.06830448
36	0xbe263683	-0.16231732
37	0xbe47da7d	-0.1951694
38	0xbe546789	-0.2074262
39	0xbe1186fc	-0.14211649
40	0x3d4ce2a6	0.050020836
41	0xbcdcdb95	-0.026960174
42	0x3d828525	0.063730516
43	0xbe474a52	-0.19461945
44	0xbd4c32ab	-0.04985301
45	0x3e19b40e	0.15010092
46	0xbe40f324	-0.18842751
47	0x3d9bf9ae	0.07615982
48	0xbe2d8f09	-0.16949095
49	0x3e0d9bed	0.13829012
50	0x3d9864cb	0.074411
51	0x3e0ec3cf	0.13941883
52	0xbce7e767	-0.028308583
53	0xbe647531	-0.2231033
54	0x3dc7f43c	0.09763381
55	0x3e601ce2	0.21886018
56	0xbe604783	-0.2190228
57	0x3d0be6d4	0.03415568
58	0x3dc8b478	0.09800047
59	0xbdc3c08a	-0.09558208
60	0x3e2c87fb	0.16848747
61	0xbd01b687	-0.031668212
62	0xbd8e3026	-0.06942777
63	0x3e1971aa	0.14984766
64	0xbb2653b2	-0.0025379476
65	0x3e1ef2d8	0.15522325
66	0x3e5f70c8	0.21820366
67	0xbe1cfcc2	-0.15330794
68	0xbd2b5e91	-0.041838232
69	0xbdf332d9	-0.11874933
70	0x3dd2a654	0.10285631
71	0xbd1130dc	-0.035446987
72	0x3d8ec860	0.06971812
73	0xbd2e75c0	-0.042592764
74	0xbe623685	-0.2209111
75	0xbe363721	-0.17794468
76	0x3e3315ab	0.17488734
77	0xbe4c23dc	-0.19935554
78	0xbe3536ff	-0.1769676
79	0x3df82962	0.12117268
80	0x3e0ab553	0.13545732
81	0x3e30c566	0.17262802
82	0xbd261993	-0.040551733
83	0xbe27ce05	-0.16387184
84	0xbda135ae	-0.07871567
85	0x3c7da179	0.015480393
86	0x3c823acc	0.015897177
87	0xbe5096b1	-0.20369984
88	0xbd20ca5f	-0.039255496
89	0xbda8738f	-0.08225166
90	0xbcca5f50	-0.024703652
91	0x3e282cc4	0.16423327
92	0xbe2f7c2e	-0.17137215
93	0xbe368572	-0.17824343
94	0x3e1b1dc9	0.15148081
95	0xbe2d3688	-0.16915333
96	0x3de40516	0.111337826
97	0x3cbb7072	0.022880767
98	0x3e0f6ddf	0.14006756
99	0xbdf1ff58	-0.11816281
100	0xbe1d3712	-0.15353039
101	0xbe554e82	-0.2083073
102	0xbe230ec2	-0.15923598
103	0xbe6b51d4	-0.22980434
104	0x3d65940a	0.056049384
105	0x3e1b39bf	0.15158747
106	0x3e7ab709	0.24483885
107	0xbe509361	-0.2036872
108	0x3de971b0	0.11398637
109	0xbcce1c55	-0.025159994
110	0xbe193a07	-0.14963542
111	0x3e3bceca	0.18340603
112	0x3e33e92d	0.17569418
113	0x3d76b25e	0.060228698
114	0x3e54fcd4	0.20799571
115	0x3e33ef82	0.17571834
116	0xbdafc2c0	-0.085820675
117	0xbe13180f	-0.14364646
118	0x3d30b8d1	0.043145005
119	0x3dc9ae28	0.09847671
120	0x3e592fe7	0.2120968
121	0xbd6779ef	-0.05651277
122	0xbe5ebc58	-0.21751535
123	0xbd942455	-0.07233492
124	0xbe71fdc1	-0.23631956
125	0xbd992b9d	-0.07479022
126	0x3dbc75ea	0.09202178
127	0x3e0c0c68	0.13676608
128	0x3dbb44fc	0.09144017
129	0x3bc67ca7	0.00605734
130	0xbd10f6c0	-0.03539157
131	0x3e70a9d9	0.23502292
132	0xbe72b74c	-0.23702735
133	0xbde0cf99	-0.10977096
134	0x3cbc00e5	0.022949645
135	0xbd934dbe	-0.071925625
136	0xbd3b3176	-0.045701467
137	0xbe1bfddb	-0.15233557
138	0xbe1fa60a	-0.15590683
139	0x3e217e2d	0.15770788
140	0xbe279753	-0.1636632
141	0xbe027bb7	-0.12742506
142	0x3e7ad325	0.24494608
143	0x3da4541c	0.08023855
144	0xbe4c49fd	-0.199501
145	0x3de9b8ab	0.11412176
146	0xbe0b5297	-0.13605724
147	0x3e534126	0.20630321
148	0xbdbc3c6e	-0.091912135
149	0xbe407ee1	-0.187984
150	0xbe228bf3	-0.15873699
151	0xbd24d9be	-0.040246718
152	0x3de62c95	0.11238972
153	0x3e838e7c	0.25694644
154	0xbdfa8f7f	-0.12234401
155	0xbe39b6b8	-0.18136108
156	0x39d498fa	0.00040549767
157	0xbe228682	-0.15871623
158	0xbe25e218	-0.16199529
159	0x3e3af6e8	0.1825825
160	0xbe299b4f	-0.16563152
161	0xbbbe3ff7	-0.005805965
162	0x3e025a35	0.12729724
163	0xbd0a6867	-0.033790972
164	0x3dd86578	0.10566229
165	0xbe1e1517	-0.15437733
166	0xbdebc233	-0.1151165
167	0x3c870fe2	0.016487066
168	0xbe2f8221	-0.17139484
169	0xbd2960b7	-0.041352
170	0xbe1dcbd3	-0.15409784
171	0xbe60a81c	-0.21939129
172	0x3e182d1a	0.14860955
173	0xbdee2155	-0.11627451
174	0x3e64927f	0.22321509
175	0xbd209d0d	-0.039212275
176	0x3e3368e2	0.17520478
177	0xbe124750	-0.14285016
178	0xbd56aa1d	-0.052408326
179	0x3e4cad5c	0.19988006
180	0x3e7ce836	0.24697956
181	0x3e3dd22e	0.18537208
182	0x3e6894e4	0.22713047
183	0x3e6f9c6d	0.23399515
184	0xbc8f8604	-0.017519958
185	0x3dd5cfba	0.10440011
186	0x3e783245	0.24237926
187	0x3e53a3e0	0.20667982
188	0x3e10b5f8	0.14131916
189	0x3db89634	0.09013024
190	0xbd5399c7	-0.051660325
191	0xbe6823c9	-0.22669901
192	0x3db531de	0.08847402
193	0xbe4d6ad0	-0.20060277
194	0xbe490145	-0.1962939
195	0x3e5d1e93	0.21593694
196	0xbe10227c	-0.14075655
197	0xbe51c730	-0.2048614
198	0x3e09dded	0.13463564
199	0x3db6e23d	0.0892987
200	0xbdb62f74	-0.0889577
201	0x3e45af72	0.19305208
202	0x3e328ad2	0.17435768
203	0x3e2202f5	0.1582144
204	0xbdb3bb0a	-0.08775909
205	0xbe5e5f92	-0.21716145
206	0x3e5e3709	0.21700682
207	0xbe485273	-0.19562702
208	0x3d960a9e	0.07326244
209	0x3c5fa240	0.013649523
210	0xbce8c8a2	-0.028415982
211	0xbe3e9497	-0.1861137
212	0xbe0dbb39	-0.13840951
213	0xbe47d022	-0.1951299
214	0x3e1e00b5	0.15429957
215	0xbe53b8c7	-0.20675956
216	0xbe468843	-0.19387917
217	0x3e2714a1	0.16316463
218	0x3c602d46	0.013682669
219	0x3e4cc363	0.19996409
220	0xbe1823ed	-0.14857455
221	0xbdcccc2b	-0.099998794
222	0xbe6a5785	-0.22884949
223	0x3b55fcf5	0.0032651995
224	0xbe4a732c	-0.19770497
225	0xbe493d3c	-0.19652265
226	0xbe5f89dc	-0.21829933
227	0x3e65a9be	0.22428033
228	0x3dc123d7	0.09430664
229	0x3e0343b8	0.12818801
230	0xbd51110a	-0.05104164
231	0x3e409d0c	0.18809909
232	0xbe1648cf	-0.14676212
233	0x3d381e86	0.044950984
234	0x3e5076aa	0.20357767
235	0xbb7a9ad3	-0.0038239255
236	0xbe074f72	-0.132139
237	0x3e54853b	0.20753948
238	0x3e76ce6d	0.24102183
239	0xbe17f757	-0.14840446
240	0x3e6efe61	0.23339225
241	0x3cda98b9	0.026684152
242	0xbd47e9b5	-0.048806865
243	0x3dc614fa	0.0967197
244	0xbd9fa310	-0.077947736
245	0x3e3a9e4a	0.18224445
246	0x3d719723	0.058982026
247	0xbe2c8082	-0.16845897
248	0x3d39c68d	0.04535537
249	0x3d0a08e1	0.033699874
250	0x3cc3a2bd	0.02388131
251	0x3e383fab	0.17993037
252	0xbe126bc2	-0.14298919
253	0xbe256c75	-0.16154654
254	0x3db0cfcb	0.08633383
255	0x3e11c21f	0.14234208

input_proj.0.bias f4 [64]
0	0xbbde0a2b	-0.0067761145
1	0x3b1f280f	0.0024285351
2	0x3b43de70	0.0029887222
3	0xbba2d13d	-0.004968791
4	0x3c06bdbc	0.008223947
5	0x3b858202	0.004074336
6	0x3b899855	0.0041990676
7	0x3c043d81	0.008071304
8	0xbbd42fbb	-0.0064754165
9	0x3c57a25d	0.013161269
10	0xbae3ccde	-0.0017379781
11	0xbb18fba3	-0.0023343347
12	0xbb0f96a9	-0.0021909869
13	0x3a5ea05e	0.00084925245
14	0xbb3d4660	-0.0028881058
15	0x3b72403d	0.0036964559
16	0xba9c3cfe	-0.0011920033
17	0xba9c5864	-0.0011928198
18	0xbad1523c	-0.0015969942
19	0xba78cc0b	-0.0009490854
20	0x3a7a2ea2	0.0009543692
21	0x3a918899	0.0011103331
22	0x3b10ffc1	0.0022125097
23	0x3bdff72e	0.006834886
24	0xbb925190	-0.0044652894
25	0xbc1dd010	-0.0096321255
26	0xbacab945	-0.0015466592
27	0xbbe05b65	-0.0068468326
28	0xbb5e4603	-0.0033916242
29	0x3bd5b451	0.0065217395
30	0x3c01d878	0.007925145
31	0x3b3b4b19	0.0028578697
32	0x3b298d91	0.0025871734
33	0xbb3f3748	-0.0029177237
34	0xb9689551	-0.00022180869
35	0x3b82b85f	0.003989264
36	0xbba81a40	-0.0051300824
37	0x399d201b	0.00029969294
38	0x3b99ef1f	0.004697695
39	0x395b0475	0.00020887128
40	0x3b9d8d94	0.004808137
41	0xba620725	-0.00086222804
42	0xbb8783bc	-0.004135577
43	0x3aa6db29	0.001273011
44	0x38f39df2	0.000116165626
45	0xbbbe5ff5	-0.005809779
46	0xbaf7a571	-0.001889391
47	0x3afa1da5	0.0019082321
48	0xbabb6aca	-0.0014298793
49	0xbb7fd33e	-0.0039035822
50	0xbb973a86	-0.004615131
51	0x3b92b54f	0.00447718
52	0xbbfd4738	-0.007729437
53	0x3bf2c0a8	0.0074082203
54	0xbb0ea1f6	-0.0021764017
55	0x3a60e378	0.00085788174
56	0x3af0ff1f	0.0018386579
57	0xbaaa5f69	-0.0012998405
58	0x3b611094	0.0034342157
59	0xbb9419d4	-0.0045196805
60	0xba0c36b0	-0.0005348725
61	0xbaab5ed2	-0.0013074523
62	0x3aa5ac94	0.0012639933
63	0x3a9a0473	0.0011750594

input_proj.1.weight f4 [64]
0	0x3f7f32cf	0.996869
1	0x3f800ca7	1.0003861
2	0x3f816eea	1.0111973
3	0x3f81d090	1.0141773
4	0x3f81508d	1.0102707
5	0x3f8108a2	1.008076
6	0x3f809540	1.0045547
7	0x3f8197bd	1.0124432
8	0x3f7fd06a	0.9992739
9	0x3f80f1a4	1.0073743
10	0x3f7dfa3e	0.99209964
11	0x3f7f6bbf	0.9977378
12	0x3f7c115d	0.98463994
13	0x3f805061	1.002453
14	0x3f80a03f	1.0048903
15	0x3f809e77	1.004836
16	0x3f819f7c	1.0126796
17	0x3f7fbb2d	0.9989498
18	0x3f805d64	1.00285
19	0x3f80c757	1.0060834
20	0x3f8030fb	1.0014948
21	0x3f8043a1	1.0020639
22	0x3f7f5b7e	0.9974898
23	0x3f805a47	1.002755
24	0x3f800356	1.0001018
25	0x3f7e60bd	0.9936636
26	0x3f813f18	1.009738
27	0x3f80c674	1.0060563
28	0x3f80edb7	1.0072545
29	0x3f80542d	1.0025688
30	0x3f800fb0	1.0004787
31	0x3f808eba	1.0043557
32	0x3f822aa5	1.0169264
33	0x3f813adc	1.0096087
34	0x3f7fc41c	0.99908614
35	0x3f7e8a04	0.99429345
36	0x3f80d447	1.0064782
37	0x3f801cff	1.0008849
38	0x3f7f234b	0.9966323
39	0x3f801546	1.0006492
40	0x3f7f4a54	0.9972279
41	0x3f801f0f	1.0009478
42	0x3f7e94a9	0.9944559
43	0x3f7ed14e	0.99538124
44	0x3f802644	1.0011678
45	0x3f813134	1.0093141
46	0x3f819d01	1.0126039
47	0x3f7fbaf6	0.99894655
48	0x3f80c6aa	1.0060627
49	0x3f818202	1.01178
50	0x3f7cd8c7	0.98768276
51	0x3f805701	1.0026551
52	0x3f7e7bd4	0.99407697
53	0x3f80dc8d	1.0067307
54	0x3f800cdc	1.0003924
55	0x3f7f37c6	0.9969448
56	0x3f7ddaaf	0.9916181
57	0x3f812026	1.0087936
58	0x3f7ce5e8	0.9878831
59	0x3f802280	1.0010529
60	0x3f7fec98	0.9997039
61	0x3f81b555	1.0133463
62	0x3f802f1a	1.0014374
63	0x3f81ac9f	1.0130805

input_proj.1.bias f4 [64]
0	0xbbe38582	-0.0069434056
1	0x3bceb183	0.006307782
2	0x3b51c0bd	0.003200575
3	0xbb95769f	-0.00456126
4	0x3bdf7793	0.0068196743
5	0x3bee0553	0.0072638183
6	0x3b9237b7	0.004462208
7	0x3c0fd1d4	0.008778054
8	0xbb950210	-0.004547365
9	0x3c502cda	0.012706006
10	0xbb40124c	-0.002930778
11	0xb9cff595	-0.0003966509
12	0xbb8b65e2	-0.0042540887
13	0x368eb9d0	4.253561e-06
14	0xb9d04106	-0.00039721298
15	0x3b99320a	0.0046751546
16	0xba847d43	-0.0010108132
17	0x394a4e12	0.00019293305
18	0x3989fd3a	0.00026319345
19	0xbb22f66a	-0.0024866113
20	0x3b1e4041	0.0024147185
21	0xba55ca2a	-0.000815543
22	0x3a9cf151	0.0011973773
23	0x3bcfb400	0.0063385963
24	0xba6bd86a	-0.0008996787
25	0xbbfe19f4	-0.0077545587
26	0xbaf56ad2	-0.0018723852
27	0xbbb5e25f	-0.005550667
28	0xbb8429cb	-0.0040333024
29	0x3b2247bf	0.0024762002
30	0x3bc5fed4	0.006042341
31	0x3b06c453	0.0020563796
32	0x3b483b29	0.003055284
33	0xbb7ffc74	-0.0039060386
34	0xbb66e896	-0.0035233847
35	0x3ac98143	0.0015373606
36	0xbbafec34	-0.005368734
37	0x384c3a11	4.869147e-05
38	0x3bc86bcd	0.0061163665
39	0x39e534a7	0.00043717513
40	0x3b20d0f4	0.0024538608
41	0x38b2a64c	8.5186766e-05
42	0xbb8ebc6b	-0.0043559573
43	0xba92ba65	-0.0011194466
44	0xbb3ed84e	-0.0029120627
45	0xbbca8f0e	-0.006181604
46	0x3a47583a	0.00076043943
47	0x3b87547a	0.0041299434
48	0xba74ffd3	-0.0009345982
49	0xbb6f47cf	-0.0036511307
50	0xbb36e74c	-0.002790886
51	0x3af12aa8	0.0018399553
52	0xbc04760c	-0.008084785
53	0x3be78a93	0.00706608
54	0xbb3680d5	-0.0027847786
55	0xba880391	-0.001037704
56	0x3b2bcb23	0.0026213608
57	0x399a135b	0.0002938759
58	0x3b3a04b5	0.0028384153
59	0xbb8b3fc7	-0.004249546
60	0xba688174	-0.00088693877
61	0x3aee3388	0.0018173316
62	0x3a9e6281	0.00120838
63	0xba2dd63d	-0.000663135

pos_enc.pe.weight f4 [65, 64]
0	0xbdb5dcd1	-0.08880008
1	0x3d409514	0.047017172
2	0x3f0fe64d	0.56210786
3	0xba8f6d71	-0.001094265
4	0xbf2e4402	-0.6807252
5	0x3bbd035f	0.005768224
6	0x3f6e8fc2	0.93188107
7	0x3f23b824	0.6395285
8	0x3ed04276	0.40675706
9	0xbde57dc0	-0.112056255
10	0x3f7a8754	0.97862744
11	0xbe16d5d9	-0.14730014
12	0xc0354c3d	-2.8327782
13	0x3f570585	0.839928
14	0x3f04f65b	0.5193841
15	0xbfaf5683	-1.3698276
16	0xbf57befc	-0.84275794
17	0x3fff891b	1.9963716
18	0xbe3b9616	-0.18318972
19	0x3f22a492	0.63532364
20	0x3f99b81f	1.2009314
21	0x3fde65b3	1.7374786
22	0xbe9a7ef4	-0.30174983
23	0x3f998934	1.1994996
24	0x3f7ee1ac	0.995631
25	0xbd12b280	-0.035814762
26	0x3fa9783a	1.3239815
27	0x3f44cdbc	0.76876426
28	0x3ee064e1	0.43826964
29	0x3ec14407	0.37747213
30	0x3f0002c0	0.50004196
31	0xc00e3835	-2.2221806
32	0x3fd333a3	1.6500133
33	0xbe3c637d	-0.18397327
34	0xc00d079f	-2.2035902
35	0xbef56ef4	-0.47936213
36	0xbe4cde3b	-0.20006649
37	0x3ced5a92	0.028973851
38	0xbf586ed3	-0.84544104
39	0xbd159d60	-0.036527038
40	0xbe247e82	-0.16063884
41	0x3f6fe31c	0.93705916
42	0xbf24013e	-0.64064395
43	0xc0066a26	-2.1002288
44	0xbf91307d	-1.1342922
45	0xbf17cc0f	-0.59295744
46	0x3f6767e7	0.9039292
47	0xbeacf9d4	-0.33784354
48	0x3f261314	0.6487286
49	0x3f6c607b	0.9233472
50	0xbf049bb5	-0.5180009
51	0xbf1240e3	-0.5713026
52	0xbe9d38ec	-0.3070749
53	0x3efcaf6c	0.49352586
54	0xbe699579	-0.22810926
55	0x3e4d5668	0.20052493
56	0x3f27ad75	0.6549905
57	0xbed98850	-0.4248681
58	0xbfd9c30f	-1.7012652
59	0x3fb69cc9	1.4266597
60	0xbdf51ff9	-0.11968989
61	0x3f0de534	0.5542786
62	0x3e8522c9	0.260031
63	0xbfe3297c	-1.7747035
64	0xbf37e0de	-0.71827495
65	0xbf1e1dd9	-0.61764294
66	0x3fdae855	1.7102152
67	0xbf047cd5	-0.5175298
68	0xbf5a4389	-0.852593
69	0x3f2243fa	0.63384974
70	0xbf22ef8b	-0.63646764
71	0xc007f876	-2.1245399
72	0xbdbc6b76	-0.09200184
73	0xbf0dfd9a	-0.5546509
74	0x3f572ed3	0.84055823
75	0x3f1850d1	0.59498316
76	0x3f713b90	0.9423151
77	0x3f843446	1.0328453
78	0xbf0ba98c	-0.54555583
79	0xbf4a3e68	-0.79001474
80	0x3f890c7b	1.0706934
81	0xbf47f102	-0.78102124
82	0x3fea8037	1.8320378
83	0xbf2678fd	-0.65028363
84	0x400dc82b	2.2153423
85	0x3f3113d8	0.69170904
86	0x3fc42b61	1.5325738
87	0xbf306ee2	-0.68919194
88	0x3f540323	0.82817286
89	0xbfde73eb	-1.7379125
90	0x3ec1763f	0.37785527
91	0xbf11e345	-0.5698741
92	0x4012aefe	2.2919307
93	0x3f93e140	1.1553116
94	0xbfc6a7d8	-1.5519972
95	0x3ec348cc	0.38141477
96	0xbf8edcef	-1.1161174
97	0x3f0eb218	0.557405
98	0x3f272f88	0.653069
99	0xbefbccb7	-0.49179623
100	0xbf934574	-1.150557
101	0x3f1c4e73	0.61057204
102	0x3f6a51d8	0.91531134
103	0xbd0fae5d	-0.035078395
104	0xbf13b643	-0.57699984
105	0xbda99ee0	-0.08282256
106	0xbd09a73b	-0.03360675
107	0x3e5f6e4f	0.21819423
108	0x3f4ddb4f	0.80412763
109	0xbedffa36	-0.43745583
110	0x3f67eaf1	0.9059287
111	0xbdfdaa21	-0.12385965
112	0x3fc1b9ea	1.5134861
113	0x3dd11c80	0.10210514
114	0x3eb78a1b	0.35847554
115	0x3f0a9c70	0.54144955
116	0x3f11cf82	0.56957257
117	0x3f9de20a	1.2334607
118	0x3f2a17fe	0.6644286
119	0x3f6644e4	0.8994887
120	0x3fbd9452	1.4810889
121	0xbf5b774d	-0.85728914
122	0xbea9fa23	-0.33198652
123	0x3fb541ee	1.4160745
124	0x3fb99822	1.4499552
125	0x3e0ff9d4	0.14060146
126	0x3f437547	0.76350826
127	0x3eed9e8a	0.46410018
128	0x3f904335	1.127051
129	0xbf3a9c3e	-0.72894657
130	0x3eaa5feb	0.33276305
131	0xbe637e49	-0.22216143
132	0x3e96999f	0.2941408
133	0x3eb8ac0b	0.36068758
134	0xc028e980	-2.6392517
135	0x3ef03947	0.469187
136	0xbf9d69de	-1.2297933
137	0xbfed3dfa	-1.8534539
138	0x3f0464f9	0.5171657
139	0x3f5872a3	0.8454992
140	0x3f0e9b72	0.5570594
141	0xbea99d6f	-0.33127925
142	0xbeb39085	-0.35071197
143	0x3f2007de	0.62512004
144	0xbebdbdc4	-0.37058842
145	0xbe7679df	-0.24069928
146	0x3f0fa172	0.5610572
147	0x3fd7d631	1.6862241
148	0xbfb77207	-1.4331673
149	0xc011a23f	-2.2755277
150	0x3d43a98e	0.04776912
151	0x3f98b745	1.193093
152	0x3e2769b7	0.16348921
153	0xbfad2764	-1.3527646
154	0xbe184d27	-0.14873181
155	0xbfd6dfb5	-1.678702
156	0x3c028eee	0.007968647
157	0xbf050d20	-0.5197315
158	0x3efaaf43	0.4896184
159	0xbf4f9258	-0.8108268
160	0xbea87d7c	-0.32908237
161	0x3fba5007	1.4555672
162	0xbedf953f	-0.43668553
163	0xbf41fc30	-0.7577543
164	0xc0036cdc	-2.0535192
165	0x3f02be38	0.510715
166	0xbc592005	-0.013252263
167	0xbf0eed96	-0.5583128
168	0xbfef80ec	-1.8711219
169	0xbf74325e	-0.95389354
170	0x3fe9f326	1.8277328
171	0x3fc4af13	1.5365928
172	0xbe03332e	-0.12812492
173	0xbeeea83c	-0.46612728
174	0x3e1d194b	0.1534168
175	0x3f27118e	0.6526116
176	0xbfc6fe34	-1.5546327
177	0xbd0d2ba8	-0.034465462
178	0x3d1e0d3f	0.03858685
179	0xbd412716	-0.047156416
180	0x3f18ef6e	0.5974034
181	0x3fb5e91a	1.4211762
182	0xbecfeab1	-0.40608743
183	0xbe4cd00e	-0.20001242
184	0xbed63866	-0.41839904
185	0xc03e09ae	-2.9693408
186	0xbfae8698	-1.3634825
187	0x3df50fde	0.11965917
188	0x3f80672a	1.0031483
189	0x3f16fdf9	0.5898128
190	0x3f7a1939	0.97694737
191	0xbddb925b	-0.107212745
192	0x3f605fc4	0.87646127
193	0x3f4a1fc2	0.7895471
194	0x3f157a33	0.58389586
195	0x3f1ee207	0.6206364
196	0x3f9151b9	1.1353065
197	0xc01da622	-2.463265
198	0x3f8b17eb	1.0866674
199	0x3f3aa0b1	0.72901446
200	0x3e66858b	0.2251188
201	0xbf385150	-0.71999073
202	0x3f986e8f	1.190874
203	0xbfded3f9	-1.7408439
204	0xbf50ca29	-0.8155847
205	0x3f16c45d	0.58893377
206	0xbfc5fdbd	-1.546806
207	0xbf06e605	-0.5269473
208	0xbec3a110	-0.38208818
209	0xbea16f78	-0.31530356
210	0xbd19def6	-0.037566148
211	0xbed894c8	-0.4230101
212	0x4044208a	3.064486
213	0x3f705842	0.9388467
214	0x3daa5d39	0.08318562
215	0xbf485582	-0.78255475
216	0xbf255478	-0.64582014
217	0x3e69f6e3	0.22848086
218	0xbfe7bc62	-1.8104365
219	0xbf10e29e	-0.5659579
220	0x403a34c2	2.90947
221	0xbf0ce0dc	-0.5503061
222	0xbf9afbf8	-1.2108145
223	0x3ebff13f	0.37488744
224	0xbf98c6d3	-1.1935676
225	0xbf40c721	-0.75303847
226	0x3ed945aa	0.42435962
227	0x3ee1fe4a	0.4413932
228	0xbe43983d	-0.19101043
229	0x3e3f8a22	0.18705037
230	0xc005d6d6	-2.0912375
231	0x402eb671	2.7298853
232	0x3f1f6b16	0.62272775
233	0x3ed738a1	0.42035392
234	0x3df12849	0.11775262
235	0xbefa49c8	-0.48884416
236	0xbf7ec264	-0.99515367
237	0xbf4bfeca	-0.7968565
238	0xbff672e5	-1.9253813
239	0xbf15057c	-0.58211493
240	0x3e7a8d0f	0.24467872
241	0x3f3ad451	0.7298022
242	0xbf35effd	-0.7106932
243	0xbf2f7fdf	-0.6855449
244	0xbcfbe8b7	-0.030750616
245	0x3ed0b2f4	0.4076153
246	0xbf951e4b	-1.164987
247	0xbcf313ad	-0.029672468
248	0xbf698ad8	-0.91227484
249	0xbf88ca23	-1.0686687
250	0xbf258bb5	-0.646663
251	0x3d88e905	0.0668507
252	0x3f911f64	1.1337705
253	0xc00019d6	-2.001577
254	0xbf4aea74	-0.79264
255	0xbf794c0d	-0.9738167

blocks.0.norm1.weight f4 [64]
0	0x3f7fdc61	0.99945647
1	0x3f801ef3	1.0009445
2	0x3f81066a	1.0080082
3	0x3f82b17b	1.0210413
4	0x3f81640b	1.0108656
5	0x3f7ee08e	0.99561393
6	0x3f80b6df	1.0055808
7	0x3f808094	1.0039239
8	0x3f7f6739	0.9976688
9	0x3f800e29	1.0004321
10	0x3f7dea67	0.99185795
11	0x3f7f71a9	0.99782807
12	0x3f7e90a8	0.9943948
13	0x3f80f31b	1.007419
14	0x3f809fe1	1.0048791
15	0x3f804fd8	1.0024366
16	0x3f81cb22	1.0140116
17	0x3f8097a1	1.0046273
18	0x3f807b12	1.0037558
19	0x3f7fdc19	0.9994522
20	0x3f7f0ddd	0.9963053
21	0x3f7f9abd	0.99845487
22	0x3f807d6b	1.0038275
23	0x3f80cf42	1.006325
24	0x3f7fa904	0.9986727
25	0x3f7f4cbb	0.99726456
26	0x3f805453	1.0025734
27	0x3f80c4a4	1.006001
28	0x3f7d0b3e	0.9884528
29	0x3f815374	1.0103593
30	0x3f803009	1.0014659
31	0x3f805852	1.0026953
32	0x3f81b575	1.0133501
33	0x3f81252b	1.0089468
34	0x3f80d522	1.0065043
35	0x3f80a9ce	1.005182
36	0x3f8142a2	1.009846
37	0x3f81367f	1.0094756
38	0x3f7f98d5	0.9984258
39	0x3f80d96d	1.0066353
40	0x3f7f3791	0.9969416
41	0x3f8164a5	1.0108839
42	0x3f807fc4	1.0038991
43	0x3f80dfe7	1.006833
44	0x3f7fdb03	0.9994356
45	0x3f80ca2c	1.0061698
46	0x3f8148f1	1.0100385
47	0x3f812b87	1.0091408
48	0x3f813ec4	1.009728
49	0x3f80ec3c	1.0072093
50	0x3f7e6b41	0.99382406
51	0x3f8079ed	1.0037209
52	0x3f805551	1.0026037
53	0x3f808123	1.0039409
54	0x3f7f12b8	0.9963794
55	0x3f7f90a9	0.9983011
56	0x3f7f3a49	0.9969831
57	0x3f80545c	1.0025744
58	0x3f7f83f5	0.99810725
59	0x3f8040e1	1.00198
60	0x3f80bc21	1.0057412
61	0x3f803af2	1.0017989
62	0x3f80e2fb	1.0069269
63	0x3f80ef2b	1.0072988

blocks.0.norm1.bias f4 [64]
0	0xbb845011	-0.004037865
1	0x3b4d0e67	0.0031289102
2	0xba2b82b6	-0.000654261
3	0xbb9a96a4	-0.004717665
4	0x3ad0fadf	0.0015943906
5	0x3bb46f9c	0.005506469
6	0x3adf2a36	0.001702613
7	0x3b48e8af	0.0030656268
8	0xba3dfe36	-0.0007247658
9	0x3ba5a0ad	0.0050545544
10	0xba9c83c1	-0.0011941121
11	0x3b48650e	0.0030577811
12	0xbb859397	-0.004076432
13	0xbb2607a0	-0.0025334135
14	0xbabe38ca	-0.0014512774
15	0x3bba051b	0.005676878
16	0xbb206dea	-0.0024479576
17	0xbb300e01	-0.0026863816
18	0xba10b5a6	-0.0005520232
19	0xbb09701d	-0.0020971366
20	0xbaf6bad7	-0.0018823993
21	0x383c5796	4.4904264e-05
22	0xba1f3e9b	-0.00060746976
23	0xba590c94	-0.00082797674
24	0x391b787f	0.0001482684
25	0x3b017583	0.001975388
26	0xbb123731	-0.0022310729
27	0xbb4ac136	-0.0030937917
28	0xbabdfcaf	-0.0014494861
29	0xbaaa621c	-0.001299921
30	0x387a3cdc	5.9661324e-05
31	0x3a92ed1a	0.0011209578
32	0x3b387e04	0.0028151283
33	0xbbd9af4a	-0.0066432105
34	0xbba15587	-0.0049235257
35	0xb8c13b51	-9.214006e-05
36	0xb92da798	-0.00016560999
37	0x3bbc0609	0.005738024
38	0x399f05b6	0.00030331098
39	0x3a31c11e	0.0006780791
40	0x3b3d57f1	0.0028891528
41	0x3b1a48de	0.0023541967
42	0x3a1b5d3c	0.0005926674
43	0xbba1d013	-0.0049381345
44	0xbb23ddb5	-0.0025003974
45	0xbb36e800	-0.002790928
46	0x3a9a8c54	0.0011791089
47	0xba8aff89	-0.001060472
48	0x3b27a51a	0.0025580586
49	0xbb96c835	-0.0046015033
50	0x3b28e0b8	0.0025768708
51	0xbafd13b1	-0.0019308237
52	0xbb87b056	-0.004140894
53	0x3b824730	0.0039757714
54	0xba6268ac	-0.0008636813
55	0xbbbcc2f4	-0.005760545
56	0xba437cd1	-0.0007457259
57	0x3ba5d326	0.0050605712
58	0x3c00b3f7	0.007855407
59	0x3ad86ebd	0.0016512495
60	0x3a3e9efb	0.0007271615
61	0xb9f7d515	-0.0004727027
62	0x3b784adc	0.0037886417
63	0xbb397376	-0.002829758

blocks.0.attn.in_proj_weight f4 [192, 64]
0	0xbe21e65c	-0.15810531
1	0x3dc9c5bb	0.09852167
2	0xbcda4d5e	-0.02664822
3	0xbe11082a	-0.1416327
4	0x3df9770a	0.12180908
5	0xbdf00341	-0.11719371
6	0xbdc1fe92	-0.094723836
7	0x3be52e92	0.006994077
8	0x3da309b1	0.07960833
9	0x3d3a24a1	0.04544509
10	0xbdd4f4e1	-0.103982694
11	0xbdeba6fe	-0.115064606
12	0xbca3cb24	-0.019994326
13	0xbdff5ccf	-0.12468874
14	0x3dca8c96	0.09890096
15	0xbd824068	-0.06359941
16	0x3e0e14a7	0.13875066
17	0xbdadd338	-0.084875524
18	0xb9fcd415	-0.000482232
19	0xbe0e83fd	-0.13917537
20	0xbdbe96ab	-0.093060814
21	0x3d75b322	0.059985287
22	0xbd8ebabc	-0.069692105
23	0xbd05ef58	-0.03269896
24	0xbd9f706f	-0.07785117
25	0x3de554ff	0.11197852
26	0xbdb844f6	-0.08997528
27	0x3db011e2	0.08597161
28	0x3df427e6	0.119216725
29	0x3b5854a3	0.0033009432
30	0xbe1125cc	-0.14174575
31	0x3dc39d48	0.095514834
32	0x3dc95a75	0.098317064
33	0xbda73ba6	-0.08165674
34	0x3dd81b56	0.10552089
35	0x3dbca53d	0.09211204
36	0x3c6ddb3a	0.0145176
37	0x3e084ee1	0.1331134
38	0x3dd09c93	0.10186114
39	0x3d9faef0	0.077970386
40	0xbd5bbec7	-0.053648736
41	0xbddc30bd	-0.107514836
42	0x3dd88f28	0.1057418
43	0xbd638800	-0.05554962
44	0x3de33ecd	0.11095963
45	0xbda90101	-0.082521446
46	0x3d82537d	0.063635804
47	0xbcec3b8d	-0.02883699
48	0x3ca543bc	0.0201739
49	0x3db42f02	0.087980285
50	0x3e13ffdd	0.14453073
51	0x3c6d0d48	0.0144684985
52	0xbc220602	-0.009889128
53	0x3deba17c	0.1150541
54	0x3d2b3600	0.041799545
55	0xbdd120f7	-0.10211366
56	0xbc65a345	-0.014015977
57	0x3dd60293	0.1044971
58	0xbe1475fa	-0.1449813
59	0x3dc4698b	0.09590443
60	0x3d3c694a	0.04599885
61	0xbe0ce580	-0.13759422
62	0x3e140322	0.1445432
63	0xbd7c187a	-0.06154678
64	0xbccadac0	-0.024762511
65	0x3d2ebfe7	0.04266348
66	0xbe1236c3	-0.14278702
67	0x3e1af219	0.15131415
68	0x3e20477d	0.1565227
69	0xbdc7b315	-0.09750954
70	0x3cd3b3f8	0.025842652
71	0xbc7f048b	-0.015565048
72	0xbe25c710	-0.16189218
73	0xbd54f3f5	-0.051990468
74	0x3dfe6466	0.12421493
75	0xbd85496e	-0.06508146
76	0xbd8029ee	-0.062579975
77	0x3e0f30a8	0.13983405
78	0x3dae15fd	0.08500288
79	0x3e071ee9	0.13195385
80	0x3dce1276	0.10062115
81	0x3c10a157	0.008827529
82	0xbbb63536	-0.0055605425
83	0x3e17199a	0.1475586
84	0x3c556ee7	0.013026929
85	0x3da8fcc5	0.08251337
86	0x3d656d8f	0.056012686
87	0xbd51df2a	-0.051238216
88	0xbdc7b1ac	-0.09750685
89	0x3da0be43	0.078487895
90	0x3b4912ee	0.003068145
91	0xbdc98e0a	-0.09841545
92	0x3d056e61	0.03257597
93	0x3cf28a2f	0.029606907
94	0xbcddf6a8	-0.027095154
95	0xbdeb7a80	-0.114979744
96	0x3db2fb51	0.08739341
97	0xbdff03e2	-0.124519125
98	0xbd8dff72	-0.06933488
99	0xbd8922c4	-0.06696084
100	0x3a2cce66	0.0006592035
101	0x3e0a6a34	0.13517076
102	0x3cc2dff7	0.023788435
103	0x3d716b0a	0.05893997
104	0xbd7a46ee	-0.0611028
105	0xbde1acd7	-0.11019295
106	0x3d77be46	0.060484193
107	0x3db2bad7	0.08727043
108	0xbc1cb7dc	-0.00956532
109	0x3c936007	0.017990125
110	0xbcfdf483	-0.031000381
111	0x3c7cb0c0	0.015423
112	0x3e1bf33f	0.1522951
113	0x3d01f5fa	0.031728722
114	0xbdb985eb	-0.09058746
115	0xbccf5451	-0.02530876
116	0xbd8ad59e	-0.067790255
117	0x3e155d61	0.14586402
118	0x3dabb050	0.08383238
119	0x3c975dbd	0.018477315
120	0x3d8f1785	0.06986908
121	0x39007fa2	0.00012254578
122	0xbbd6bcd3	-0.0065532713
123	0xbd404681	-0.046942238
124	0xbd524558	-0.051335663
125	0xbd6d11b0	-0.057878196
126	0x3c885505	0.016642103
127	0xbcf8f351	-0.03038946
128	0xbcd4875b	-0.025943449
129	0x3e083b56	0.13303885
130	0xbe1aa497	-0.15101849
131	0x3bd64d6c	0.006539991
132	0x3de9e519	0.1142065
133	0xbdec1c3e	-0.11528824
134	0x3d9ea5b7	0.07746451
135	0xbdf0ff9e	-0.11767505
136	0xbd664671	-0.056219522
137	0xbd2d8b7f	-0.042369362
138	0xbdcaaa64	-0.09895781
139	0xbd9189be	-0.0710635
140	0x3d90c89c	0.07069513
141	0x3dfd8d65	0.123804845
142	0x3d571daf	0.052518543
143	0x3e0e1f64	0.13879162
144	0xbdfb0edd	-0.12258694
145	0xbe11bf01	-0.14233018
146	0xbd7b2056	-0.061310135
147	0x3d126fca	0.03575114
148	0xbd4998d3	-0.04921801
149	0x3d544936	0.051827632
150	0xbd65a912	-0.05606944
151	0xbdb2e270	-0.08734596
152	0xbb5b5d70	-0.003347244
153	0x3dd572a9	0.1042226
154	0x3dfa5b89	0.1222449
155	0xbd8f13c9	-0.069861956
156	0xbde602e3	-0.11231019
157	0x3c83d086	0.016090643
158	0xbd1e1053	-0.038589787
159	0x3d4f6446	0.050632738
160	0x3de6fa35	0.11278192
161	0xbe165bae	-0.1468341
162	0xbb8f5acd	-0.004374838
163	0x3d572eef	0.052534994
164	0xbde51909	-0.11186416
165	0x3e18186d	0.14853068
166	0xbe17cd9d	-0.14824529
167	0x3c8dd83b	0.01731502
168	0xbaa870fe	-0.0012851057
169	0xbcf0d2bb	-0.02939736
170	0x3d8d1132	0.06888045
171	0x3d10e7ab	0.035377186
172	0x3d1374f5	0.03600021
173	0x3dd6e7c0	0.104934216
174	0xbd38939a	-0.04506264
175	0x3def7866	0.11692886
176	0x3e00ed1a	0.12590447
177	0xbe214dd4	-0.15752345
178	0xbdb107c2	-0.08644058
179	0x3e0b0271	0.1357515
180	0x3dbb2e39	0.09139676
181	0x3d4c9f47	0.049956586
182	0x3db2acd6	0.08724372
183	0xbd9e703e	-0.07736252
184	0xbdac99bb	-0.08427759
185	0x3ccfc078	0.025360331
186	0x3d573e32	0.05254955
187	0x3d234f11	0.039870325
188	0xbe05c3f5	-0.13063033
189	0xbd0e5d4b	-0.03475694
190	0xbe087af7	-0.13328157
191	0x3d8dcaa1	0.06923414
192	0x3b8d13a5	0.0043053203
193	0x3e1589fe	0.14603421
194	0xbd6310c1	-0.0554359
195	0xbe1674c1	-0.14692976
196	0x3c37a985	0.01120985
197	0x3e1cb2c7	0.15302573
198	0x3da080ca	0.078370646
199	0x3c9f6b58	0.019460365
200	0x3c21dfbb	0.009880002
201	0xbcfd01ef	-0.030884711
202	0xbddcfaf0	-0.1079005
203	0x3d44d6cf	0.04805642
204	0xbd9fd55b	-0.07804366
205	0x3dcf290c	0.10115251
206	0x3dbada73	0.09123697
207	0x3cb226ae	0.02174696
208	0x3d982daa	0.07430585
209	0x3d93e2d5	0.07220999
210	0xbde092fb	-0.10965534
211	0x3dbdde37	0.092709
212	0xbe03cd47	-0.12871276
213	0x3e0477ef	0.12936376
214	0xbc54d7f4	-0.01299094
215	0xbdd5ee0c	-0.104457945
216	0x3c72ae21	0.014812023
217	0x3dc535b8	0.09629387
218	0x3da34dad	0.079738
219	0x3cb4830b	0.022035142
220	0xbcaa3deb	-0.020781478
221	0x3d2d789c	0.04235135
222	0x3dfa02fb	0.122076
223	0x3cb748fa	0.022373665
224	0xbd89dbb6	-0.0673136
225	0xbe121ff8	-0.14270008
226	0x39af32c2	0.0003341642
227	0xbdc44ea2	-0.095853105
228	0x3ddd881a	0.10816975
229	0xbdf9bb35	-0.1219391
230	0xbdbed700	-0.09318352
231	0xbdb736ae	-0.08945976
232	0x3d612b52	0.054972954
233	0x3e175193	0.14777212
234	0x3d7c8676	0.06165167
235	0x3d9c845c	0.07642433
236	0xbdcc4f86	-0.099761054
237	0xbd7620c4	-0.06008984
238	0xbd8326ec	-0.06403908
239	0xbcd381c7	-0.025818719
240	0xbda41fa6	-0.08013849
241	0x3db31a96	0.08745305
242	0xbc8cb55e	-0.017176326
243	0x3db2c348	0.08728653
244	0xbd3f5ffd	-0.0467224
245	0x3dbca7c0	0.09211683
246	0x3da7418e	0.081668004
247	0xbddf2713	-0.10896125
248	0xbdb0ecf1	-0.08638943
249	0xbd9d242c	-0.07672915
250	0xbcd35e25	-0.025801728
251	0xbd5bacb4	-0.0536315
252	0xbda07cd4	-0.07836309
253	0x3915ba1c	0.00014279078
254	0x3dcd7c56	0.10033481
255	0xbd6d29ec	-0.057901308

blocks.0.attn.in_proj_bias f4 [192]
0	0x3c0111c9	0.0078777755
1	0x3b1575a1	0.0022805708
2	0xbbf9e35e	-0.0076259812
3	0x3c04f065	0.008113955
4	0x3bde7232	0.0067885155
5	0xbaca7fea	-0.0015449498
6	0x3b256b44	0.0025240937
7	0x3ba9ced1	0.005182125
8	0x3b9921c1	0.004673213
9	0xbbc73cc1	-0.0060802405
10	0xbc8b1611	-0.016978296
11	0x3c0f7b5c	0.0087574385
12	0x3bc78a95	0.0060895183
13	0x3baa1efa	0.005191681
14	0x3c874f76	0.016517382
15	0x3c178151	0.00924714
16	0xbb75e4fe	-0.0037520523
17	0x3bd25b43	0.0064195707
18	0xbbb0c8bf	-0.0053950245
19	0xbc4bd3ee	-0.012440665
20	0x3c23f2a1	0.010006578
21	0x3b45c973	0.0030179888
22	0xbba2d7d9	-0.0049695787
23	0x3c5fafe9	0.01365278
24	0x3c38af15	0.011272212
25	0x3b4b70c4	0.0031042555
26	0x3b8d54c5	0.004313084
27	0xbb1e7521	-0.00241787
28	0x3ba48034	0.005020166
29	0xbb9dd352	-0.004816451
30	0xbc076049	-0.008262702
31	0xbb584fa7	-0.003300646
32	0x3b1a5499	0.002354896
33	0xbbbe0f42	-0.0058001587
34	0x3b5400e1	0.0032349157
35	0xbbac3075	-0.0052548
36	0xba392978	-0.0007063369
37	0xbc0122a8	-0.007881798
38	0x3ac91348	0.0015340829
39	0xbb8397ce	-0.0040158993
40	0x3bff3141	0.007787854
41	0xbba6709c	-0.005079342
42	0x3aa3bb37	0.0012491707
43	0x3afdcd43	0.0019363541
44	0xba7bfe86	-0.0009612817
45	0x3c18dd0a	0.009330044
46	0x388d7122	6.7444766e-05
47	0xbc828354	-0.015931763
48	0x3b3c16f5	0.0028700207
49	0x3b5a3c92	0.0033300263
50	0xbc57a3f1	-0.013161645
51	0xbc35a1cc	-0.011085939
52	0xbbdf72c0	-0.006819099
53	0x3b0641ed	0.0020486072
54	0xbc4dd543	-0.012563053
55	0xbc24f5a8	-0.010068335
56	0x3af54b49	0.0018714453
57	0xbc403a90	-0.011732712
58	0x3c43ffea	0.01196287
59	0x3bd5d7bf	0.006525963
60	0xbba79bf4	-0.0051150266
61	0xbc047247	-0.0080838865
62	0xbb344650	-0.002750773
63	0x3bc5fe0f	0.006042249
64	0x391a27de	0.00014701436
65	0x3868d5eb	5.5512337e-05
66	0x3936dd18	0.00017439236
67	0xb863ef02	-5.434361e-05
68	0x388e31fa	6.7803965e-05
69	0x366cf018	3.5306493e-06
70	0x3837cb6c	4.382005e-05
71	0xb8843adc	-6.305214e-05
72	0xb80d2d56	-3.3659242e-05
73	0x36789d96	3.7046607e-06
74	0x331ba7e0	3.624143e-08
75	0xb8d421cc	-0.00010115243
76	0xb82848d6	-4.0122155e-05
77	0xb6d71a68	-6.4105734e-06
78	0x3886cd61	6.427873e-05
79	0xb7826761	-1.5545347e-05
80	0xb89901bd	-7.295932e-05
81	0x38a3ed2d	7.816623e-05
82	0xb8ad48e0	-8.262857e-05
83	0x3885ce32	6.380341e-05
84	0x382fa381	4.1875526e-05
85	0xb844652e	-4.6824272e-05
86	0xb98d9961	-0.00027007892
87	0xb98f135c	-0.0002728951
88	0x3855d525	5.0981664e-05
89	0xb7f36cdf	-2.9018554e-05
90	0xb8531bc1	-5.0332168e-05
91	0xb87d5919	-6.040288e-05
92	0xb68b59e2	-4.1529865e-06
93	0xb90aee68	-0.00013249519
94	0xb74ce816	-1.2213384e-05
95	0x35c6d5a6	1.481433e-06
96	0xb55e4e2c	-8.28152e-07
97	0x381b27ef	3.699207e-05
98	0x37d7072d	2.5633339e-05
99	0x36c5d8fd	5.8963183e-06
100	0xb84fef71	-4.9575643e-05
101	0x381e528b	3.774701e-05
102	0x3805f7a4	3.1940304e-05
103	0xb829a514	-4.044648e-05
104	0x37a91f3f	2.016092e-05
105	0xb7f47108	-2.9139701e-05
106	0xb807c0fb	-3.2366235e-05
107	0x37979b9c	1.8073064e-05
108	0x3890c47a	6.903052e-05
109	0x3813fc48	3.5282486e-05
110	0xb7410b22	-1.15062885e-05
111	0x38192a21	3.651728e-05
112	0xb94ae672	-0.00019350069
113	0x382ee33e	4.169647e-05
114	0xb8b93f2d	-8.833255e-05
115	0xb6de55a2	-6.6260845e-06
116	0xb7453021	-1.1753321e-05
117	0xb7ebf85f	-2.812984e-05
118	0x38973774	7.21057e-05
119	0x37e49d0f	2.7252854e-05
120	0xb721873a	-9.627833e-06
121	0x37ca99e8	2.4151945e-05
122	0x37bb55d8	2.2332111e-05
123	0xb70a667f	-8.249305e-06
124	0x391b352c	0.0001480176
125	0x387b3ab0	5.989772e-05
126	0x37a70004	1.9907959e-05
127	0x37924258	1.743545e-05
128	0x3a38d811	0.00070512394
129	0xbb76301c	-0.0037565297
130	0xba051a07	-0.0005077426
131	0xbb893912	-0.0041877115
132	0x3af60306	0.0018769212
133	0xbb74fb55	-0.003738125
134	0x3b21f487	0.00247124
135	0x3ad64dc0	0.0016350076
136	0x3b140dc8	0.0022591222
137	0x3b80f342	0.0039352486
138	0x3b0056a3	0.001958289
139	0xbad8dfd8	-0.0016546203
140	0x3bf6b6ee	0.007529131
141	0xba65ecb4	-0.0008770928
142	0x3a4d1232	0.00078228407
143	0xba4c61c4	-0.00077965506
144	0xbb3e884b	-0.0029072936
145	0xba32f375	-0.0006826439
146	0x3be2dfd4	0.006923655
147	0xbb812fe1	-0.003942475
148	0xbb84f247	-0.004057202
149	0x3babedd6	0.005246858
150	0x3b81c8ed	0.00396072
151	0x3b8f5cb8	0.0043750666
152	0xbb20c87a	-0.0024533556
153	0x3adede5e	0.0017003526
154	0xbb27a630	-0.0025581233
155	0xbb5f1c0d	-0.003404382
156	0xbbcd068b	-0.0062568835
157	0x3b4078cb	0.0029368873
158	0x3b24c668	0.0025142673
159	0xbb03853f	-0.0020068435
160	0x3b11cb87	0.0022246556
161	0xbb23b6c6	-0.0024980768
162	0x3b2ce07d	0.0026378923
163	0xbb8add4d	-0.004237807
164	0x3a83b3c9	0.0010048087
165	0xba116137	-0.0005545797
166	0xbbbc3d11	-0.0057445844
167	0xbaa9fdc8	-0.001296931
168	0x3adf14a8	0.0017019706
169	0xb9eb32f8	-0.00044860668
170	0xbb5df354	-0.0033866959
171	0xbad7609f	-0.0016431994
172	0xba97cae7	-0.0011580855
173	0xbaa8ddcb	-0.0012883482
174	0x3b1e0fd6	0.0024118326
175	0xba223228	-0.00061872834
176	0xbb88b13e	-0.0041715195
177	0x3a17421a	0.0005770043
178	0x3aa47182	0.0012546035
179	0x3a00fe84	0.0004920738
180	0x3ab908c2	0.001411699
181	0x39cbcfe6	0.00038874074
182	0x399386ee	0.00028138555
183	0x3b9502a2	0.004547433
184	0x3b6762a7	0.0035306604
185	0x384d468b	4.8941507e-05
186	0xb87a61e4	-5.9695813e-05
187	0xbafad25e	-0.0019136181
188	0x3b13f0f5	0.0022574042
189	0x39cd0e7b	0.00039111436
190	0x3a9e21af	0.0012064482
191	0xbaed646a	-0.0018111591

blocks.0.attn.out_proj.weight f4 [64, 64]
0	0x3dff4b57	0.12465542
1	0x3ddcf2bb	0.10788485
2	0xbe517be8	-0.20457423
3	0x3c6a352b	0.014294903
4	0x3e58b1e4	0.2116161
5	0xbe06addd	-0.13152261
6	0xbe07f411	-0.13276698
7	0xbd099873	-0.033592653
8	0x3e256e60	0.16155386
9	0xbd491bcd	-0.04909878
10	0xbd28f66a	-0.041250624
11	0x3d680c77	0.056652512
12	0xbe1076a6	-0.14107761
13	0xbd196dab	-0.037458103
14	0x3d837f83	0.06420805
15	0x3dd887a9	0.1057275
16	0xbe430f9f	-0.19048928
17	0x3bfc78b2	0.0077048177
18	0xbe1e92c4	-0.15485674
19	0x3e10998d	0.14121075
20	0xbd117f60	-0.035521865
21	0xbc0c0bff	-0.008547782
22	0x3dacbbb4	0.08434239
23	0xbcc8f80f	-0.024532346
24	0x3e4c4a1d	0.19950147
25	0x3b958338	0.0045627616
26	0xbd83c4c7	-0.06434017
27	0xbe160f59	-0.14654292
28	0x3e3d5263	0.1848846
29	0x3d7f8ef8	0.062392205
30	0x3e53dc09	0.20689406
31	0x3cc2c4f9	0.023775565
32	0x3dfe52fd	0.124181725
33	0x3e13095a	0.14359036
34	0xbdda45a1	-0.10657812
35	0x3e47f106	0.19525537
36	0xbabc04a9	-0.001434465
37	0x3d3adaa3	0.045618664
38	0xbdaa6268	-0.08319551
39	0x3dc5d55c	0.09659836
40	0xbae6529a	-0.0017572225
41	0x3e2cee15	0.16887696
42	0xbcabc5c7	-0.020968331
43	0xbe38968e	-0.18026182
44	0x3e304e71	0.17217423
45	0x3e4cb0ee	0.19989368
46	0xbcae6a18	-0.021290824
47	0xbe4fed01	-0.20305254
48	0xbe2dd3c1	-0.16975309
49	0x3dac9db2	0.084285155
50	0xbe1761cb	-0.14783399
51	0xbe0d9b7a	-0.13828841
52	0x3e02ccac	0.12773389
53	0xbdcad9a2	-0.099047914
54	0x3deb351e	0.11484741
55	0xbd868dc1	-0.06570006
56	0xbe42ebcc	-0.19035262
57	0xbe31a5a6	-0.17348346
58	0xbd5ca2c0	-0.053866148
59	0x3de2d2eb	0.11075386
60	0xbe020a08	-0.12699139
61	0xbdbee40a	-0.09320839
62	0x3d959e0d	0.073055364
63	0xbe0ba2fd	-0.13636394
64	0xbdd63094	-0.10458484
65	0xbe3af00f	-0.18255638
66	0xbd629ab1	-0.055323306
67	0xbe2fcdf0	-0.17168403
68	0xbbb4f789	-0.0055226726
69	0x3e4ccb18	0.19999349
70	0x3bd3b505	0.006460788
71	0x3c95e44c	0.018297337
72	0xbe0e154d	-0.13875313
73	0x3dadcd87	0.08486467
74	0x3df856c3	0.121259235
75	0x3d6af0ca	0.05735854
76	0x3e13943c	0.14412016
77	0xbe4d6e38	-0.20061576
78	0x3e34a0a6	0.17639408
79	0x3e20c9d1	0.15701987
80	0xbc822d66	-0.015890788
81	0x3dbf8ebc	0.09353396
82	0x3e31d81d	0.17367597
83	0xbd52e536	-0.051488124
84	0x3e3a84e7	0.1821476
85	0x3dab2215	0.0835611
86	0x3dd371f9	0.10324473
87	0xbe412137	-0.18860327
88	0xbd938a6c	-0.07204136
89	0x3d6d5f4a	0.057952203
90	0xba7973bb	-0.00095158414
91	0xbe2c4fb4	-0.1682728
92	0xbde6de16	-0.11272828
93	0xbe02d295	-0.12775643
94	0x3dba8211	0.091068394
95	0x3d83481b	0.064102374
96	0x3e2b5319	0.16730918
97	0xbdb2abe3	-0.08724191
98	0xbe241842	-0.16024879
99	0xbda8dc96	-0.082451984
100	0xbd854718	-0.06507701
101	0xbe16d4cb	-0.14729612
102	0xbd9998bf	-0.07499837
103	0x3d4da21e	0.050203435
104	0x3da2fa3f	0.07957887
105	0xbe04c815	-0.1296695
106	0xbc5ae1e0	-0.013359517
107	0x3d826aa1	0.06367994
108	0x3e2c221f	0.16809891
109	0x3d805eaf	0.062680595
110	0x3e091472	0.13386706
111	0xbd904632	-0.07044639
112	0x3d89c33b	0.067266904
113	0x3e3c7e60	0.18407583
114	0xbcc216ac	-0.023692451
115	0xbde2018e	-0.11035453
116	0x3e3850d1	0.17999579
117	0xbd133081	-0.03593493
118	0xbe32f8a3	-0.1747766
119	0x3c14f2ce	0.009091092
120	0xbc2a01ad	-0.010376376
121	0xbd7cf471	-0.061756555
122	0xbe35098b	-0.17679422
123	0x3db9d5cd	0.090739824
124	0xbe296da5	-0.16545732
125	0xbe030f1b	-0.12798731
126	0xbd9d945c	-0.07694313
127	0xbe30c10c	-0.17261142
128	0x3d860016	0.06542985
129	0x3ca45e13	0.02006439
130	0xbd50065b	-0.05078731
131	0xbe038f55	-0.12847646
132	0x3c02d15e	0.007984487
133	0xbe092143	-0.13391595
134	0x3d92c2e9	0.071660824
135	0xbe334cd1	-0.17509772
136	0xbe33e5de	-0.17568156
137	0xbe194007	-0.1496583
138	0xbd0237d1	-0.031791512
139	0xbd0e5715	-0.034751017
140	0x3e363863	0.17794947
141	0xbe1421a4	-0.14465958
142	0xbdc51822	-0.096237436
143	0xbe1891c8	-0.14899361
144	0xbdc8329c	-0.09775278
145	0xbe0cc949	-0.13748659
146	0x3e042a8a	0.12906852
147	0x3e346672	0.17617205
148	0xbd51f1fa	-0.051256157
149	0xbd434c80	-0.047680378
150	0x3de3fe9f	0.111325495
151	0xbd328239	-0.04358122
152	0xbdcb0ea5	-0.099149026
153	0xbd4a2d96	-0.04935988
154	0x3de23ccb	0.110467516
155	0x3e385b27	0.18003522
156	0xbe332cda	-0.17497578
157	0xbdaf09c1	-0.08546782
158	0xbe363b0f	-0.17795967
159	0x3d85943c	0.06522414
160	0x3e25dd47	0.16197692
161	0x3dc59a73	0.096485995
162	0xbe135783	-0.14388852
163	0xbe005860	-0.12533712
164	0x3d15f022	0.03660596
165	0x3da167e2	0.07881142
166	0xbe362f0b	-0.17791383
167	0xbd9a6077	-0.075379305
168	0xbe2a024c	-0.16602439
169	0x3dcfc0df	0.10144209
170	0x3e4f183a	0.20224085
171	0xbd5f7ae4	-0.054560557
172	0x3e4419d8	0.19150484
173	0xbdcc952f	-0.09989392
174	0x3c30705c	0.010768976
175	0x3e125f25	0.14294107
176	0xbda5452e	-0.080698356
177	0x3e3b4c2f	0.1829078
178	0x3e45de6b	0.19323127
179	0xbd89a146	-0.067202136
180	0xbda089c2	-0.07838775
181	0x3e4c9f3b	0.19982617
182	0xbe394950	-0.18094373
183	0xbdae81b2	-0.08520831
184	0x3e125eea	0.1429402
185	0xbe01e561	-0.12685157
186	0xbe39f0a3	-0.18158202
187	0x3e033227	0.128121
188	0xbd2d9b2a	-0.042384304
189	0xbdc24b26	-0.0948699
190	0xbdd29a6e	-0.102833614
191	0xbdff8577	-0.12476628
192	0x3d8d4255	0.068974175
193	0x3db07415	0.08615891
194	0x3e3065f0	0.17226386
195	0x3ce0fed0	0.027465254
196	0xbb215097	-0.0024614686
197	0xbe0f653c	-0.14003462
198	0x3d9dd90b	0.07707413
199	0x3c44a461	0.012002082
200	0xbdb43a47	-0.08800178
201	0xbdbf6000	-0.093444824
202	0xbe03abee	-0.12858555
203	0xbdc8571c	-0.0978224
204	0x3d73df98	0.059539407
205	0xbcf84615	-0.030306855
206	0xbe2b97a5	-0.16757067
207	0xbde4881d	-0.11158774
208	0x3e520b8d	0.20512219
209	0x3e17000c	0.14746112
210	0x3e1fc78b	0.15603463
211	0xbe275524	-0.16341072
212	0x3d352281	0.04422236
213	0x3e41b13f	0.1891527
214	0xbd70b1db	-0.058763366
215	0x3db6f32b	0.08933099
216	0xbd866477	-0.06562131
217	0xbe2bd581	-0.16780664
218	0x3e5a0834	0.21292192
219	0xbdce9e3e	-0.10088776
220	0x3dd30051	0.10302795
221	0x3d9394c8	0.07206112
222	0xbbc9e9e9	-0.0061619175
223	0x3cb2b24a	0.02181353
224	0x3da96596	0.08271329
225	0xbe1a0f84	-0.15044981
226	0x3e4d8dac	0.20073575
227	0x3d96dfce	0.07366906
228	0x3d4abac9	0.04949454
229	0x3d224c39	0.039623473
230	0xbe480725	-0.19533975
231	0xbe0270e6	-0.1273838
232	0x3cbcc5a8	0.023043469
233	0x3da18355	0.07886378
234	0xbdac5be5	-0.08415965
235	0xbde44474	-0.11145869
236	0xbe38bec2	-0.18041518
237	0x3ab233e8	0.0013595792
238	0xbd9180ba	-0.07104631
239	0x3d806cab	0.06270727
240	0x3d8f818b	0.0700713
241	0xbe020f62	-0.1270118
242	0xbe518390	-0.20460343
243	0xbb0a1755	-0.0021071036
244	0x3e383406	0.17988595
245	0xbcafd0ab	-0.021461805
246	0xbda58728	-0.0808242
247	0xbe061322	-0.13093236
248	0xbd801813	-0.06254592
249	0x3cbe4350	0.023225456
250	0xbdf39f72	-0.11895646
251	0xbe47929c	-0.19489521
252	0xbe347441	-0.17622472
253	0x3d1a7901	0.037713055
254	0xbdd0b6ad	-0.10191093
255	0xbe4590da	-0.19293538

blocks.0.attn.out_proj.bias f4 [64]
0	0xbbd2d863	-0.0064344867
1	0x3b547be6	0.0032422482
2	0x3ac46e0f	0.0014986413
3	0x3b33144d	0.0027325333
4	0x3aa53f7f	0.0012607424
5	0xbb3c2201	-0.0028706791
6	0xba59d188	-0.00083091157
7	0xba8c2851	-0.0010693168
8	0xbb6a0324	-0.0035707438
9	0x3bdd99c2	0.006762714
10	0xbc27ffe6	-0.010253882
11	0x3afabc7a	0.0019129657
12	0xba7ffe10	-0.0009765336
13	0x3b90f6e0	0.004423961
14	0xbb478205	-0.0030442488
15	0x3b97c165	0.0046312087
16	0x3b372bcd	0.0027949691
17	0xbbb877dd	-0.005629523
18	0x3b070351	0.0020601342
19	0xbc02e1cc	-0.0079884045
20	0xb9ce5497	-0.00039354406
21	0x3a815818	0.0009868173
22	0xbaa76781	-0.0012771935
23	0x3b48a665	0.0030616757
24	0xbb4ac32b	-0.0030939083
25	0xbb40e25c	-0.0029431796
26	0x3afcb1cf	0.0019279065
27	0x3aad6064	0.0013227579
28	0xbae2f33f	-0.0017314925
29	0x39886d35	0.00026021307
30	0xba2ab748	-0.00065122964
31	0xbb3e5ac5	-0.0029045802
32	0xba6eaf42	-0.0009105095
33	0x3a19f8e0	0.0005873572
34	0x3a79cfd0	0.00095295627
35	0x3b31ee7e	0.002715021
36	0xbc21f100	-0.009884119
37	0x3b7091e5	0.0036708054
38	0x39ef48ce	0.00045639876
39	0x3a95a7b9	0.0011417783
40	0x3b06c81b	0.002056605
41	0x3af12d4f	0.0018400344
42	0xbb2638fd	-0.0025363558
43	0x3b408f71	0.0029382373
44	0x3b6b1da5	0.0035875824
45	0x3ab17461	0.0013538712
46	0x39c0fee3	0.00036811
47	0x3ba49ecb	0.0050238124
48	0xb979eb12	-0.00023834061
49	0x3b4cf418	0.003127342
50	0x3b86154f	0.0040918957
51	0xbb097325	-0.0020973173
52	0x3860397b	5.3459295e-05
53	0x3afe2ab6	0.0019391391
54	0x3992da44	0.0002800991
55	0x3a97c6fb	0.0011579687
56	0x3b1908bb	0.002335115
57	0xbaa49db4	-0.0012559206
58	0xbae13e17	-0.0017184642
59	0xba155426	-0.0005696438
60	0xbb9db9ef	-0.004813425
61	0xbab1518f	-0.0013528335
62	0xbab54d00	-0.0013832152
63	0x3b88e4f5	0.0041776844

blocks.0.norm2.weight f4 [64]
0	0x3f802367	1.0010804
1	0x3f808d93	1.0043205
2	0x3f7f6b6b	0.9977328
3	0x3f7f727b	0.9978406
4	0x3f7f6656	0.9976553
5	0x3f7f1691	0.9964381
6	0x3f804178	1.001998
7	0x3f7dab6c	0.99089694
8	0x3f7eff8e	0.99608696
9	0x3f7fcfb0	0.9992628
10	0x3f7f51ab	0.9973399
11	0x3f813f22	1.0097392
12	0x3f7f137c	0.99639106
13	0x3f80a555	1.0050455
14	0x3f7f7c0b	0.9979865
15	0x3f7e2b7a	0.9928509
16	0x3f7fd1a9	0.9992929
17	0x3f7ce0aa	0.9878031
18	0x3f7fb08b	0.9987876
19	0x3f7fd5aa	0.999354
20	0x3f7ff7d4	0.9998753
21	0x3f805a84	1.0027623
22	0x3f800772	1.0002272
23	0x3f808d54	1.004313
24	0x3f7e85f6	0.9942316
25	0x3f7ef11c	0.99586654
26	0x3f7ec24a	0.9951521
27	0x3f7f7ae5	0.997969
28	0x3f7e4225	0.9931968
29	0x3f7f4778	0.9971843
30	0x3f7f1e69	0.9965578
31	0x3f7f64ed	0.99763376
32	0x3f7f1364	0.9963896
33	0x3f8093e8	1.0045137
34	0x3f7f2cc5	0.9967769
35	0x3f7d2f21	0.9890004
36	0x3f7fd52a	0.9993464
37	0x3f80062a	1.0001881
38	0x3f807e09	1.0038463
39	0x3f7e6eaa	0.9938761
40	0x3f808280	1.0039825
41	0x3f7fa62a	0.9986292
42	0x3f80868e	1.0041063
43	0x3f7f515d	0.99733526
44	0x3f802caf	1.0013636
45	0x3f7f64b2	0.99763024
46	0x3f7e562c	0.9935024
47	0x3f7eaa4d	0.9947861
48	0x3f801882	1.0007479
49	0x3f803714	1.0016809
50	0x3f7f2df0	0.9967947
51	0x3f7ef863	0.9959776
52	0x3f7e99f4	0.99453664
53	0x3f809805	1.0046393
54	0x3f7ee1f9	0.99563557
55	0x3f808473	1.004042
56	0x3f7f9777	0.9984049
57	0x3f807e05	1.0038458
58	0x3f8014bf	1.0006331
59	0x3f7e821a	0.9941727
60	0x3f7d848c	0.99030375
61	0x3f811132	1.0083373
62	0x3f7f15ac	0.99642444
63	0x3f7f01ca	0.99612105

blocks.0.norm2.bias f4 [64]
0	0xbbac06bd	-0.0052498267
1	0x3b77cc64	0.0037811035
2	0x3b052d38	0.0020321142
3	0x3b841395	0.0040306547
4	0x3b8dc057	0.004325907
5	0xbb2ca7e1	-0.002634518
6	0xb90c3a28	-0.00013373105
7	0xbb9dcfbc	-0.0048160236
8	0xbbacff9a	-0.0052794935
9	0x3c0e7aad	0.00869624
10	0xbc12d0e2	-0.008960934
11	0x3ab06911	0.0013459047
12	0x3b694ec2	0.0035599922
13	0xbae33d96	-0.001733708
14	0xbb08ef1b	-0.002089447
15	0x38e85356	0.000110781446
16	0x3be05c53	0.0068469434
17	0xbc36156a	-0.011113504
18	0x3b179f63	0.0023135773
19	0xbc0ef256	-0.00872477
20	0xb92b555a	-0.00016339627
21	0x3aebe25b	0.0017996536
22	0x3bae68ff	0.005322575
23	0x3be0e160	0.0068628043
24	0xbb879443	-0.004137547
25	0x3a0837e6	0.0005196318
26	0xbb71da3f	-0.0036903766
27	0xbbde312a	-0.006780763
28	0xbb7b0783	-0.0038304038
29	0xbab45cbb	-0.0013760546
30	0x3bb4989a	0.0055113556
31	0x3b2c1684	0.0026258538
32	0xbbac9479	-0.0052667228
33	0x3b80d7ff	0.0039319987
34	0x3b82f208	0.0039961375
35	0x3be2b698	0.0069187395
36	0xbc04e4a9	-0.008111157
37	0x3b07d612	0.002072696
38	0x3b839a05	0.0040161633
39	0x3b92eeab	0.004484018
40	0x3a6988ce	0.000890863
41	0xbb07c532	-0.0020716903
42	0xbbf01bc3	-0.007327528
43	0x3a8f1188	0.0010915259
44	0x3b90bd9f	0.004417136
45	0x3b90b8ff	0.0044165845
46	0xbb8b11a3	-0.004244046
47	0x3a9fd80f	0.0012195128
48	0xba6803e4	-0.00088506774
49	0x3af6f9e8	0.0018842788
50	0x3b742604	0.0037254104
51	0x3b549a9f	0.0032440794
52	0xba56b9b9	-0.0008191127
53	0x3bc834a6	0.006109792
54	0xbafa5b77	-0.0019100745
55	0x3b45ead3	0.003019978
56	0xbb7163de	-0.0036833207
57	0xbb26d71d	-0.0025457807
58	0x3a049718	0.0005057915
59	0xbc05e301	-0.008171798
60	0xbbb2a3b2	-0.005451643
61	0x3add4dca	0.0016884145
62	0xbb4ba7d5	-0.0031075377
63	0x3be63a0b	0.007025962
